code/models/sic/doping/lstm/demo/demo_model_2.pth (torch, 31373 bytes, 22 tensors)

fcs.0.weight f4 [16, 4]
00000000: 2966 ca3e 7066 5d3e 9a64 cdbe 8ece 9e3e
00000010: 330a cdbe 5c1b b0be ff4e 16be 23e3 643e
00000020: b436 0d3f 9caf 8b3e 96be 173f 2842 8d3e
00000030: 54e1 1abe 5c33 4f3d 7473 f43e 0148 0dbe
00000040: 3f04 4e3e d6e2 0d3e d200 113e 3186 d0be
00000050: e6ba 0abf 82ee 5ebe 4e61 5b3e e0bf 8d3d
00000060: 19af 77bd 90b9 50bb bb99 d1be b658 b23e
00000070: da71 e2be 2d89 c83e 3109 7a3e 2492 e93e
00000080: 4106 19bf 42b6 bfbe ecb3 bd3e d515 293e
00000090: 0ac0 50be 5908 0cbf 25b4 9dbd 2900 e73e
000000a0: 38a7 a73e 9b9e f53e edbe f53d 558f a23b
000000b0: 3c87 08bf 39eb d73e 129b ac3e f854 f33c
000000c0: 5684 e7be 7b4d 58be 571f 323d ae9b ac3e
000000d0: eda8 923c ebb6 173e 57f4 553e 8bed 2abe
000000e0: 92ee 01bf 2181 053f e5a0 9dbc 3cd0 e23e
000000f0: cc37 803e d727 7d3d ca62 983e cb32 4e3d
0.39531067 0.21621108 -0.40115815 0.31016964 -0.40046844 -0.34395874 -0.14678572 0.22352271
0.55161595 0.27282417 0.59275186 0.27589536 -0.15125018 0.05058609 0.47744334 -0.13796999
0.20118807 0.13856062 0.14160469 -0.4072738 -0.54191434 -0.21770671 0.21423838 0.06921363
-0.06046972 -0.0031848885 -0.409376 0.34833306 -0.44227487 0.39167157 0.24417569 0.4561931
-0.5977517 -0.3744374 0.37051332 0.16512235 -0.20385757 -0.5470024 -0.077003755 0.4511731
0.32744765 0.4797257 0.11999307 0.004960934 -0.5333135 0.42171648 0.3371206 0.029703602
-0.45218152 -0.21123306 0.04348692 0.33712524 0.017902816 0.14815871 0.2089399 -0.16692178
-0.50754654 0.5215016 -0.01924176 0.44299495 0.2504257 0.061805572 0.2976287 0.05034141

fcs.0.bias f4 [16]
00000000: df2b 253d 72ba d9be f615 da3d 1871 353e
00000010: 3584 81be a7a1 9abe 76ab 44be 2048 ab3c
00000020: 4629 b13e da72 b13c 3c3c 873d e7c1 03be
00000030: bcb6 063f 501e f13e 5df6 27be 06bf 343e
0.04032504 -0.4252506 0.1064872 0.17718923 -0.25296178 -0.30201456 -0.19206032 0.020908415
0.34601802 0.02166121 0.06603286 -0.12866937 0.5262258 0.4709344 -0.16402574 0.17650995

fcs.1.weight f4 [16, 1]
00000000: 0bfe 303f c4d3 a6be a1db 70bf e829 1dbf
00000010: 4def 0fbf fb2c e3bd e422 3abf a5f9 af3e
00000020: 7a47 28be 6276 9e3e 8d0a 06bf 3059 86bf
00000030: 227c 1f3f 9091 f73e 3902 963d 9be2 7dbf
0.6913764 -0.3258344 -0.9408513 -0.6139207 -0.5622452 -0.11092564 -0.7270949 0.3437015
-0.16433516 0.30949694 -0.5235985 -1.0495968 0.62298787 0.48353243 0.07324643 -0.991739

fcs.1.bias f4 [16]
00000000: 2694 b3be 6ff7 23be 2dd1 5abf 18aa 743f
00000010: 6480 80bf 5a0a 76bf a3bb 2bbf 6f45 043f
00000020: 35a7 f2bd 4e1d 763f c2a7 4b3f f5a3 ddbe
00000030: 25cc 6d3e 8e10 253f 7148 dbbe 82bd f7be
-0.35073966 -0.16012357 -0.85475427 0.9557204 -1.0039182 -0.96109545 -0.67083186 0.5166845
-0.118482985 0.96138465 0.79552853 -0.43289152 0.23222406 0.64478385 -0.42828706 -0.4838677

fcs.2.weight f4 [16, 2]
00000000: 9dd6 96be e5ed 49bf 690d 063e 1f61 10bf
00000010: a872 263f 0197 663e 2759 253d 428d a93e
00000020: 8cc2 28be e354 68be 97f1 b73d 0fd7 e93d
00000030: d9ef 2bbf 49d1 d93e 389a b03e f347 1ebf
00000040: 735e ca3e 7b4c a33e 3617 95be aca3 c53e
00000050: 7d83 d3be 0d81 8dbc 8705 5b3f c629 07bf
00000060: 1e0a 753d 01d0 80be 1181 37bf 7113 533e
00000070: 9472 bfbe 9c57 f6be 603c 88bc 9bc1 0fbf
-0.29460612 -0.78878623 0.13091053 -0.56398195 0.650187 0.22518541 0.040368225 0.33115584
-0.16480464 -0.22688632 0.089816265 0.11417972 -0.67162853 0.42542484 0.3449266 -0.61828536
0.39525184 0.31894287 -0.2911927 0.38601434 -0.41311255 -0.01727345 0.8555531 -0.52798116
0.0598241 -0.25158694 -0.71681315 0.20612885 -0.37392104 -0.48113716 -0.016630352 -0.56154794

fcs.2.bias f4 [16]
00000000: 69b6 f0be 4587 293e 6827 24be e377 2c3f
00000010: 69d5 2fbf 1afe ef3e 572e d9bd 9dbf d83e
00000020: efaf 1dbe d67b 4cbe fa3d d33d 0979 c2be
00000030: 90e6 2dbe 3edf 073f 3424 1fbf 6ccd 7ebe
-0.47014168 0.16555507 -0.16030657 0.6737043 -0.68685013 0.46873552 -0.10604542 0.4233369
-0.15399145 -0.19969115 0.103145555 -0.37982967 -0.16982484 0.53075016 -0.62164617 -0.2488305

fcs.3.weight f4 [16, 1]
00000000: 8250 f73e de96 9cbe e94e 073f 901f 213f
00000010: 5a9b d83e b6fe 0dbf 33cf 513f 6280 113f
00000020: 768b 2dbf 27ea 003f 2779 8abf e519 863f
00000030: f144 34bd fe91 c4be 541f c33b e184 da3e
0.4830361 -0.30583853 0.5285478 0.62938786 0.42306024 -0.55466783 0.81956786 0.5683652
-0.67790926 0.5035729 -1.0818223 1.0476652 -0.04401106 -0.38392633 0.0059546623 0.42679504

fcs.3.bias f4 [16]
00000000: 2b6a db3e 627f 3f3f 0efb a43e 017e 343f
00000010: bed7 4f3f feea 0c3f cf57 ce3e 1cef 72bf
00000020: 5e31 2dbf b2a7 463f 076e fb3e 845f 733f
00000030: de98 223f 4e85 793f b35a 3f3f 305b 31be
0.42854437 0.74803746 0.3222279 0.70504767 0.8118857 0.5504607 0.40301368 -0.948961
-0.67653453 0.7759963 0.49107382 0.9506762 0.63514507 0.9746903 0.7474777 -0.17319942

fcs.4.weight f4 [16, 4]
00000000: f66b 703e 02f9 703e bb61 23be d838 853e
00000010: 64c4 fd3e d891 9d3e c387 02be e950 20be
00000020: 92cc 30be b4a7 94bd 8012 483e 8476 9bbd
00000030: cea3 46bd 39eb e03e 0850 1e3f 689b 703e
00000040: f088 b2be b666 923e 0045 353f 36d5 3ebe
00000050: 2edb 1f3f 5028 013e 8875 ef3e 436b 9b3e
00000060: f9e4 1abe 41d4 c6be 25c8 bb3d 723c b8be
00000070: 16cd a43e ed1d 873e 7798 29bd dc5a a33d
00000080: e87a edbd 978d c63e a47c 8cbe 9ef9 f8bd
00000090: f33a fc3c 478a 4abe 022b 083f dd03 73be
000000a0: 19f9 b03e fc77 00bf 8c0c a23d 7bd4 8e3d
000000b0: 63d7 b23e 2186 97be 7568 613d b476 9cbd
000000c0: df55 a6bd 5ced a8be 007d 24be 9e7a e5be
000000d0: 7c8d cd3e 0817 23bf 9508 c7be 25bd cc3b
000000e0: 731c 96be 3a78 153e ef2e 23bf dccd 07bf
000000f0: fcd9 f9be f1cb f43e 431e 57be 68e5 803e
0.23478684 0.23532489 -0.1595525 0.2601993 0.49563897 0.30775332 -0.12747101 -0.15655865
-0.17265537 -0.07258549 0.19538307 -0.075909644 -0.04849606 0.4392946 0.6184087 0.23496783
-0.348701 0.28593987 0.7080841 -0.18636021 0.62443817 0.12613034 0.46769357 0.30355272
-0.15126409 -0.38833812 0.09169034 -0.35983616 0.32187718 0.2639002 -0.041405167 0.079763144
-0.11595708 0.387799 -0.27438843 -0.12156986 0.030789828 -0.19779311 0.53190625 -0.23731942
0.34565046 -0.5018308 0.079125494 0.06974121 0.34929952 -0.2959452 0.05503126 -0.07639828
-0.08121847 -0.3299359 -0.16063309 -0.44820112 0.40147007 -0.6370702 -0.38873735 0.0062481337
-0.2931858 0.14596644 -0.6374349 -0.5304849 -0.4879912 0.47811845 -0.21007638 0.25175023

fcs.4.bias f4 [16]
00000000: dec5 f43e f584 d33e d436 c43e da88 dfbe
00000010: 0e45 f53c af51 62be 7d37 8c3e 57f8 1ebe
00000020: f323 153f 915b 48bd 52c0 9c3e 69f7 023e
00000030: bcf8 733e 9662 61be 5d24 a13e 34fd c1be
0.4780721 0.41312376 0.3832308 -0.43659097 0.029940154 -0.22101472 0.27386084 -0.15524422
0.5825798 -0.04891545 0.3061548 0.12789692 0.23825353 -0.22010264 0.31473055 -0.3788849

lstm.weight_ih_l0 f4 [64, 16]
00000000: 6f45 98bd 6235 c83e 3d6b 8bbe 4d68 793d
00000010: c1e3 8cbe 6ad6 21be 1d62 4a3e d1ac 01be
00000020: fafc 993e a65a 3c3e 5e16 32bc df97 8fbd
00000030: 5b01 9c3e 211b 873e a8d5 df3d 9f8f 45bd
00000040: 6140 beb9 1dea b63d ff85 243e b23e 3e3e
00000050: 3f22 0e3d 53ec 5d3e 9558 583e 776c 2bbc
00000060: b3b3 143e 9a07 74bd 7036 c13d f383 07bd
00000070: 8535 30bd 55a8 ca3d 486b c4bc 1e64 133e
00000080: 4bbc 0ebe 3537 f53a 7755 0dbe 14c7 4c3e
00000090: ad4a 9b3d 57e7 9f3e ebb5 e9bd df9e 87be
000000a0: 2369 f4bd 7482 603e b378 0b3e 1f4d aa3d
000000b0: 2a6e 9bbc e10c b6bc f173 bbbb 8cac e2bd
000000c0: 8b79 9abe b03b d03d c377 cd3d a19c ef3d
000000d0: a3bf 2cbe a12c 6a3e 7265 a43d a69b 84be
000000e0: 0719 423d 7303 2abe 0514 b43e f509 b5bd
000000f0: 15f0 613e 3b8c 36be 3191 053d 62c7 063d
00000100: 16ff 71bd 54d8 9c3e 2ab9 a43e 5299 773d
00000110: 41e0 763d aaad 7e3d a9da 0cbe 9350 013e
00000120: f442 90bd 1c36 453e aadd ebbd feef 653e
00000130: af1a d33d 3db4 bbbe c90f 143e 3a00 8d3e
00000140: f0b0 9b3e 4193 043f a5ea 87be 7bd1 953d
00000150: e361 123e 9de1 4f3e 7020 8d3e 103d 84be
00000160: fe79 a1bd 015b ac3e 8e58 05bd a29e cb3d
00000170: bb99 d6bd 0b2c d73d c0e5 81bd 110c 8bbe
00000180: 4972 393e 066f b73d 4b50 5e3e 5148 28be
00000190: 6b79 d9bd 21ac 923e f38c 7a3e 6a78 ac3d
000001a0: 1260 9f3b 970b 883e c652 ffbd b540 a5bd
000001b0: 44bc 553e ee79 643e 4d80 c0bd c162 a9be
000001c0: 7d31 2dbe dc90 a33e 2587 1cbe f770 593e
000001d0: 2c1c 793e cf37 873e dedd 3b3e 3800 893e
000001e0: 7173 663e 84bb ae3d 9bff 9bbd e3dc bfbd
000001f0: fe5d e0bd 2549 063e cf8b 063e 24fe 3ebe
00000200: 2a57 613d d4c0 a83e d66e 053e 7445 373e
00000210: 4719 993d 88bf 9a3e 9cb8 0f3a a08f 0d3d
00000220: 45e4 303e 81bf 83be 6510 8d3d 347c 8c3e
00000230: f95c 473e 7abd ddbd c11e 853e bb62 b53b
00000240: 3ceb 73bd 4770 7f3e 9bda c0bd cd69 a0bc
00000250: 58c7 6ebd 3d5d 2abe e4a3 eb3d c854 85bd
00000260: 3f18 32bc 4b1c d83d fe90 b7be bb9f f43d
00000270: e249 93be b448 8fbe 170a a9bd 031e b8be
00000280: 7d96 24be 3734 f73d 55c3 c9bd 375e 99bd
00000290: 6885 aa3e 17c9 d43d 8bf3 46be 4785 ebbd
000002a0: 2641 df3d cf2b 6c3c a9ad adbd bc7b 2b3e
000002b0: a2dc 343e f273 88be 6886 14be 2c3a 4d3d
000002c0: 5a63 d03d 6adc ce3d 4bf3 33be 550a 57be
000002d0: 8708 2ebd 0cb5 18bd 3109 3e3d 19bf 293d
000002e0: f9f8 db3e 12be f4bd c0cb 053e 90fb bbbb
000002f0: bc20 b23e 1e9b 0dbe ddea 423e beb7 4dbe
00000300: 7db3 9c3e c199 ad3e d322 833d 8cab f7bc
00000310: a1c7 00be 2b12 0a3d 78ec 8d3d 5c12 2dbd
00000320: d290 a5bd 018b c53e 4bdb 2abe aec1 d0bd
00000330: 539a 143e 7fb0 133e 1906 203e ea65 e83d
00000340: 380c 2ebb 2f24 993e 0b4c 403e 3ff0 973d
00000350: 8c4f 15bd 5e59 303e d64d f63d 9e91 ef3d
00000360: 4602 c53d 8366 b5bd 47c1 07bc 0b74 b53e
00000370: 8803 b53e 99af 88be 0af3 43be 9c24 5ebd
00000380: 979e ef3d b24a a23e 89bd 3b3e 82ba f73d
00000390: 1f9a 48bd 8f75 9e3e e587 723e 0bc0 893d
000003a0: 4937 aebd 9762 1d3d 1bd4 00bd f715 c8bd
000003b0: 7905 803e eda7 213e 30c9 713b da60 18bd
000003c0: 24c7 92bc 66a8 81be 89b1 bcbe f36e 03be
000003d0: e218 9dbd 4754 babd d9d8 3f3e f520 8fbe
000003e0: 6c47 543e ff62 b5bd f077 433e 4fcc dcbd
000003f0: 907b 823c f2f5 7d3d ab50 6cbe 32a1 383e
-0.074351184 0.39103228 -0.27230254 0.060890485 -0.27517512 -0.15804449 0.1976399 -0.1266358
0.30075818 0.18393955 -0.010869591 -0.07011389 0.30469784 0.26387885 0.109294236 -0.04823267
-0.0003628759 0.08931372 0.1606674 0.18578604 0.03470063 0.21672182 0.21127541 -0.010462872
0.14521675 -0.059577562 0.09434211 -0.03308482 -0.04301979 0.09895388 -0.023976937 0.1439366
-0.13939016 0.001870847 -0.13802134 0.19997817 0.07582603 0.31231186 -0.11411651 -0.26488397
-0.11934116 0.21924764 0.13620262 0.08315491 -0.018973429 -0.022222938 -0.0057206084 -0.11068067
-0.30170855 0.101676345 0.10032608 0.116997965 -0.16869979 0.22868587 0.08027162 -0.259
0.04738715 -0.16602878 0.35171524 -0.0883979 0.2206424 -0.17826931 0.03260917 0.03290499
-0.05908116 0.30633795 0.3217252 0.060448952 0.06027246 0.062177338 -0.13755287 0.12628393
-0.0704402 0.19258922 -0.115168884 0.22454831 0.10307824 -0.36660948 0.14459147 0.27539235
0.3040843 0.5178719 -0.26546207 0.07315346 0.14295153 0.20300908 0.2756381 -0.25827837
-0.07884596 0.3366318 -0.032555155 0.09942366 -0.104785405 0.105064474 -0.063426495 -0.27157643
0.18110003 0.08956723 0.21710317 -0.16433837 -0.10618862 0.2864695 0.2446783 0.08421405
0.0048637474 0.26571342 -0.1246696 -0.080689825 0.20872599 0.22312137 -0.093994714 -0.33083156
-0.1691341 0.31946456 -0.15285929 0.21234499 0.24327153 0.26409766 0.18346354 0.2675798
0.22504975 0.085318595 -0.07617112 -0.09368303 -0.109554276 0.1311384 0.1313927 -0.18651634
0.055014767 0.32959616 0.13030562 0.17897588 0.074755244 0.30224252 0.0005482526 0.0345608
0.17274578 -0.25732043 0.06887893 0.2743851 0.1946906 -0.108271554 0.26000026 0.005535451
-0.05955051 0.24945174 -0.09416696 -0.0195817 -0.058295578 -0.1663713 0.11505869 -0.06510311
-0.0108700385 0.105522715 -0.35852808 0.11944529 -0.28767306 -0.27985156 -0.082538776 -0.35960397
-0.16073032 0.12070506 -0.0985171 -0.07488673 0.33304906 0.10389917 -0.19428842 -0.1150003
0.10901098 0.014414742 -0.08480389 0.1674642 0.1766229 -0.2665096 -0.14504397 0.050104305
0.101752 0.101006344 -0.17573278 -0.21000035 -0.0424886 -0.037282035 0.046395484 0.04144201
0.4296339 -0.119503155 0.13066006 -0.0057367757 0.347906 -0.13828704 0.19034906 -0.20089623
0.3060569 0.33906367 0.064031266 -0.030233167 -0.12576152 0.033708733 0.069298685 -0.042253837
-0.08084263 0.38582614 -0.16685216 -0.101931915 0.14511995 0.14422797 0.15627326 0.113475636
-0.0026557576 0.29910418 0.18779008 0.0741887 -0.036452815 0.17221591 0.12026565 0.11697696
0.09619574 -0.08857443 -0.008285827 0.35440096 0.35354257 -0.2669647 -0.19135681 -0.054234132
0.117001705 0.31697613 0.1833402 0.120961204 -0.048975106 0.30949065 0.23684652 0.067260824
-0.085066386 0.0384241 -0.03145228 -0.097698145 0.25004175 0.15786715 0.0036893599 -0.03720174
-0.017917223 -0.2532379 -0.368542 -0.12835293 -0.07670762 -0.09098106 0.18735065 -0.27954832
0.2073037 -0.08856773 0.19088721 -0.10781156 0.01592806 0.06200213 -0.23077647 0.18030241

lstm.weight_hh_l0 f4 [64, 16]
00000000: c25c cc3e 6189 7abe 221f a33d c2a0 0bbe
00000010: 9f17 a3bd 53f3 9b3e 63e0 643e 16f0 863e
00000020: cd3c a0bd a7f7 693e 3d53 6fbd e61e 9e3c
00000030: 3b60 723d ab4b f5bc 26ee 603e e6f0 84be
00000040: 8de6 883e 86b5 ccbd 2c93 9ebe 1070 523d
00000050: 3f02 51be 69ae c2bd ce5c 413d f11e c8bc
00000060: 8767 d4bd 1a3b c13d 3796 1ebe 5246 adbd
00000070: dcdd 7cbe 9860 63be e662 1bbe 60d7 c1bd
00000080: bb82 933e 3fa7 8fbe 36d8 c0be 8878 54be
00000090: 6cc5 cfbd 9978 87bc 9254 1ebd f97c c3bd
000000a0: e150 b83b deda 1dbd fa07 e4bd 9198 df3d
000000b0: cf84 aabe 7b19 29be 925c 4d3d befd 51be
000000c0: 5581 bc3d 4c52 7bbe 6e37 a7bc ddac e4bc
000000d0: d249 ddbd cb8a 9ebe d50e eabd abb0 3bbd
000000e0: 8dfd 8fbe e771 133e 23ee dcbd d807 a1bd
000000f0: bb0b a43d 812c 90bd e7b5 1b3e 3970 d1be
00000100: 10ad d53e 2815 aebe aff1 143e 20ea cfbe
00000110: 0bf7 34be f9af e7bd d854 bd3e 10e6 353e
00000120: a0a2 7cbe 1039 93bd b446 cf3d f74e 2d3e
00000130: 7f05 0cbe ec9c 863e 68dc b23d 489d 513d
00000140: 6394 ed3e 6491 83be eb29 84be 1f65 5c3d
00000150: da9f 97bd 5c9e cc3e 9241 133e eb17 663e
00000160: ed20 68be 44d7 87be f601 c33c 841a cb3e
00000170: 0a06 10be ae0e 033e 14f9 b4bd 818e 093e
00000180: 5b18 733e 59b0 1bbe b717 233e 2adf 26be
00000190: 578e 8cbd e085 d23d bd4e d43d 9eed 9c3e
000001a0: d009 743e 8af9 ee3c a0ce d8bd cd7c e63e
000001b0: 4c95 b7be a771 37be eea9 593e 340c adbe
000001c0: e354 863e 1653 8cbd a4d4 d23d 45fd abbe
000001d0: 7605 b0be 06bb 643e d407 613e 316f a9bd
000001e0: 3690 55bd 16a0 9a3e 335d 223b 2c2b 553e
000001f0: 1c2a b2be 0c3d 56be c8e3 0f3e 078e 4abe
00000200: 6e8e a3bc 2064 eebd f0c6 01bb 81fe e2be
00000210: a04d ce3d e5f1 4abe 444e 163e 5201 7cbd
00000220: 2333 01be 53a4 dc3e d387 7abe 39d0 bf3e
00000230: 05f8 39bd 7785 bcbd f3ad 48bd 5168 d4be
00000240: dfde bf3e 80af 9bbe d0f8 b63c d6c4 1f3c
00000250: ab40 84be e2dc 62be ccf1 193e ddd7 593e
00000260: 9157 e1bb 554b 2a3e 3380 3ebe 1abb 9f3e
00000270: 2efd d4bd cd7c c7bd dd36 82be d7c9 9dbe
00000280: b59f 383e 0754 dabb 30aa 983d 9249 b3be
00000290: 7769 f53c dc9d 053e 277b 993e a20c 4b3e
000002a0: 4bd0 43be 0dc6 553e d1ab 1ebe ca44 9d3e
000002b0: a438 c2bd e0dc 6f3d ce88 603e 56ca dcbe
000002c0: bb18 8a3d 94e0 16bd b260 573e 1737 85be
000002d0: a88d 00be 62db 5a3d f414 1e3d 71c5 4e3e
000002e0: 145f 943e 530b 783e daa7 ad3e 9e2d 823e
000002f0: 751b 0fbe 7495 37be d247 423e 86ad 1fbe
00000300: 0ab3 533e 1c51 9dbd c3ca 693e 0a91 bbbe
00000310: 6859 ccbd 6912 263e 082c c23e 0b39 4cbe
00000320: cf81 1a3c fdb9 34bd 4ed5 22be f996 d53e
00000330: 621f abbe b338 eabd 7348 b43d 5c82 69bd
00000340: 422b 393e cd8f aebe c43f a7be 7b3e a7be
00000350: 0279 483d 3537 2abe 4bf5 89bd ef34 163e
00000360: 0560 463c fd7a 973e f84b 743c d922 ba3e
00000370: 68ea 35be 5646 b8bc 8028 c4bd 4a97 cabe
00000380: f8bb bf3e bf4c 02be 9b3a 9bbe 1f78 75be
00000390: c5a6 28bd 5017 09be 8283 bbbd bdcd bb3e
000003a0: 9d45 1dbe ea95 9c3e 74f2 e7bd 0e98 1a3e
000003b0: 2db7 93be d9fb 89be e998 1dbe 7d62 88be
000003c0: ee94 803e ad03 6d3e e857 ec3d 3ce6 a5bd
000003d0: dc57 04bd 2f07 87be 48fb 0c3e ce4f 323e
000003e0: 193a 16be 11d4 edbd a9c9 443e 140c 4bbd
000003f0: 0dd4 8dbe 9734 043e 4a07 18be e781 96be
0.3991452 -0.24466468 0.079649225 -0.13635543 -0.0796349 0.3045908 0.22351222 0.26355046
-0.07824097 0.22848378 -0.05842899 0.019301843 0.059173804 -0.029943308 0.21965846 -0.2596504
0.26738396 -0.0999556 -0.30971658 0.051376402 -0.20411013 -0.09505922 0.047207646 -0.024428817
-0.10371309 0.09435101 -0.1548699 -0.08460678 -0.24694008 -0.22204816 -0.15174446 -0.09464908
0.28810677 -0.28057286 -0.37664956 -0.20749104 -0.10145077 -0.016536998 -0.03865487 -0.09545321
0.005624876 -0.038538806 -0.11134334 0.109177716 -0.3330445 -0.16513626 0.05013711 -0.20506951
0.092043556 -0.24543113 -0.020412173 -0.027914459 -0.10805096 -0.30965266 -0.1142861 -0.04582278
-0.2812313 0.14398919 -0.107876085 -0.07862824 0.0801005 -0.070397384 0.15206109 -0.40905932
0.417336 -0.34000516 0.1454532 -0.4060831 -0.17672364 -0.11312861 0.36978793 0.17763543
-0.24671412 -0.07188618 0.101209074 0.16924654 -0.13673972 0.26291597 0.087334454 0.051175386
0.46402273 -0.25696862 -0.2581323 0.053807374 -0.07403536 0.3996457 0.14380482 0.22470061
-0.2266881 -0.26531422 0.023804646 0.39668667 -0.14064804 0.12798569 -0.088365704 0.13433267
0.2373976 -0.1520399 0.15927015 -0.16296068 -0.06863087 0.10279441 0.10366581 0.30650038
0.23831868 0.029171724 -0.105862856 0.4501709 -0.35856092 -0.17914449 0.2125623 -0.33798373
0.26236638 -0.06851785 0.10294464 -0.33591667 -0.34379166 0.22336969 0.21975642 -0.08273161
-0.052139483 0.3020026 0.002477479 0.2081725 -0.34797752 -0.20921725 0.14051735 -0.19780742
-0.019965377 -0.11640191 -0.0019802414 -0.44334796 0.100733995 -0.19818838 0.14678293 -0.061524697
-0.12617163 0.4309412 -0.24465875 0.3746355 -0.045402545 -0.09205144 -0.048994016 -0.41485837
0.37474725 -0.30407333 0.02233544 0.009751519 -0.25830588 -0.22154573 0.15033644 0.21273752
-0.006876894 0.166303 -0.18603592 0.31197435 -0.10399853 -0.09740601 -0.25432482 -0.30818054
0.18029673 -0.006662849 0.07454336 -0.35017067 0.029957516 0.130485 0.2997677 0.19829038
-0.19122426 0.20876332 -0.1549523 0.30716544 -0.094834596 0.058560252 0.21927187 -0.4312312
0.06742998 -0.03683527 0.2103298 -0.26018593 -0.12554038 0.053431876 0.0385942 0.20192505
0.2897879 0.2422307 0.33917123 0.25425428 -0.13975318 -0.17928106 0.1897271 -0.15593538
0.20673767 -0.07681486 0.22831254 -0.36634094 -0.099779904 0.1621796 0.37924218 -0.19943635
0.009430363 -0.044122685 -0.15901682 0.41716745 -0.3342238 -0.11436596 0.08802881 -0.057009086
0.18082908 -0.34094086 -0.32665837 -0.32664856 0.048943527 -0.16622622 -0.06736239 0.1466863
0.012107854 0.2958602 0.0149106905 0.36354712 -0.177652 -0.022494476 -0.09578037 -0.3956855
0.37448096 -0.12724589 -0.3031815 -0.23971604 -0.04117467 -0.133878 -0.091559425 0.36680403
-0.15358587 0.30583125 -0.11325541 0.15097067 -0.2885069 -0.26949957 -0.15390362 -0.2663764
0.25113624 0.23145933 0.11540204 -0.08100554 -0.03231035 -0.26372668 0.13767731 0.17413256
-0.146706 -0.11612714 0.19217552 -0.049572065 -0.27700844 0.12910686 -0.1484653 -0.29395983

lstm.bias_ih_l0 f4 [64]
00000000: 8967 b13c ef04 7a3e cc9a 973e 62a7 523d
00000010: e507 6d3d 320f 493c ed23 813e d748 5fbd
00000020: 1ace 5fbd eee2 0b3d 274a 1d3e 993c 02bb
00000030: 8ffc c4bd b044 37bd 69e4 5c3e 1f60 e43d
00000040: d58c f6bd 3ef6 f23d aea6 113e 3745 1abc
00000050: ea7e 263d 59fe fabd 528a cc3d a28d f4ba
00000060: 19ab 0cbe 385f 83bc 4b2a 233d c805 ce3c
00000070: 8e58 fcbd 1266 8d3e 2289 1e3e ad81 883d
00000080: f72c e73d d060 1cbe 62d4 60bd 610c 12be
00000090: f3ab 25be ce51 5cbe 24dd 933d d7e7 d23d
000000a0: d4b0 adbd 343a 9c3c 2d10 22be bf27 94bd
000000b0: 92ec 57be 0ad1 b13c d6e5 5a3e 688b 2cbe
000000c0: 7610 203d e00b 6b3e 0c3e febc e4d1 443e
000000d0: 5406 533e d9a0 953e 2852 af3d b9fc 68bd
000000e0: 543a ac3e 3dae 813e 0c32 683e e4fd 663e
000000f0: ebe4 f33b 3339 883e 5d63 da3c 8aba 833e
0.021655815 0.24415945 0.29610288 0.05142916 0.057868857 0.012271689 0.25222722 -0.054512825
-0.054639913 0.034151964 0.15360318 -0.0019872545 -0.09618484 -0.04474324 0.21571507 0.11151146
-0.1203858 0.11863373 0.1422374 -0.009415916 0.04064838 -0.12255544 0.0998732 -0.0018657933
-0.13737144 -0.016036615 0.039835256 0.025149241 -0.12321578 0.27616936 0.15482 0.06665359
0.11287873 -0.15271306 -0.054890044 -0.14262535 -0.16178875 -0.21515581 0.072199136 0.10298126
-0.08480993 0.019070722 -0.15826483 -0.072341435 -0.21086338 0.021706123 0.21376738 -0.16850054
0.0390782 0.22953749 -0.031035446 0.19220692 0.20607883 0.2922428 0.08560592 -0.05688164
0.3363825 0.25328246 0.22675341 0.22557789 0.0074430606 0.2660614 0.026658708 0.25728256

lstm.bias_hh_l0 f4 [64]
00000000: f4cf 223d b22b 9abd cefa aebd c831 7bbd
00000010: c8aa db3d 3fa2 503e 2940 a3bc 100b b73e
00000020: ccad 823e 3212 e43d a894 30bd af21 a83e
00000030: 45e9 e03d 7758 0ebe 02a2 02bc c7bd 36bd
00000040: 9704 33be 5592 13be d9f0 1a3e 3cc8 733d
00000050: 5707 46bd e0c7 b43e b871 2abe c4fd 46be
00000060: 3344 ab3e b4a6 613d 9faa e0bd 2e8b 59bd
00000070: cbb4 0b3e 641f 2a3e 75cf 213e c6ef c13e
00000080: 405c 243e e99d 2fbe 2389 16be 0907 0fbe
00000090: 9d82 33be dd2d 483e adab 413e 345c 113e
000000a0: 8098 7f3d 8cec 303d ca89 9c3d d03f c93d
000000b0: 4d44 89bd 86d7 a2bd d012 7dbe db35 ae3a
000000c0: 71fe a93e af5f bb3e 8886 1dba eb3e 8fbd
000000d0: 66c4 513e c5b3 873e d488 96bd 89da bf3e
000000e0: c286 73bc aedd 353e 56bf 1abe 1f67 fdbc
000000f0: fc7f b93d 0a7f bfbd f01e 1d3d 57f6 b23e
0.0397491 -0.075278655 -0.08543931 -0.061326772 0.10725933 0.20374392 -0.019928055 0.35750628
0.25523221 0.11136283 -0.04311052 0.328382 0.10981993 -0.13900934 -0.007973196 -0.04461458
-0.1748222 -0.1441129 0.15130939 0.05951713 -0.048346844 0.35308743 -0.16644943 -0.19432741
0.3345047 0.05509062 -0.109700434 -0.053111248 0.13643186 0.16613537 0.15801795 0.37878245
0.16050816 -0.17150082 -0.14700751 -0.13967527 -0.17530294 0.19548745 0.18913145 0.14195329
0.062401295 0.04319434 0.07643469 0.098266244 -0.067024805 -0.07951264 -0.24714208 0.0013291197
0.33201936 0.36596438 -0.00060091214 -0.069944225 0.20485076 0.2650434 -0.07350317 0.37471417
-0.014863672 0.17760345 -0.15112051 -0.030932961 0.09057614 -0.09350403 0.038359582 0.34953567

lstm.weight_ih_l1 f4 [64, 16]
00000000: fe2d 9e3d ffb9 6cbe ec0e 503e a6e5 08be
00000010: c4f7 69be 246d ce3c c888 07bd 37b1 f83d
00000020: ec1c 0fbe 3b94 d03d 0f31 b2be 280a e6bb
00000030: 8a77 bebd 2686 7f3e 3283 cbbd 3b39 2c3e
00000040: 207f 8e3e e2c4 233e d198 7c3e 01e0 1bbe
00000050: 0b16 8a3d 5bf4 77be 3662 a1bd d3b5 76be
00000060: 9a85 083e f046 1f3d 1dd5 27be 6f75 8cbe
00000070: 137a 88bc 1f2c 3b3e 3a3d b73e 511e 7ebd
00000080: c812 2b3e fabf 65be ac1e 50be 57d3 d9ba
00000090: 5e82 9fbd 2e76 ba3e 9507 d0bc 003a e23d
000000a0: 9f8b d63e fd00 2cbe 1635 883e 4fc9 133e
000000b0: ea8e 5d3d f6fd 2cbe 8b43 1c3e 54a0 3d3e
000000c0: 35ad 9a3e 072d 63be 86ba 18be 78ae 8cbe
000000d0: 1c89 a03c 46b2 50be 5c56 c5bd 8efc ddbd
000000e0: 69e2 223d 7512 2b3e b308 1d3e 46cd bcb7
000000f0: 17ee 6ebb c929 a1bc 660c fdbd 2847 18be
00000100: 4c55 c43d 6107 26be 0da4 66be 1674 5d3d
00000110: b960 27bd 00fd a83e f61b aa3e ae7f 21bd
00000120: d031 a6bc ba7d 863e bc18 943e 9917 c03d
00000130: b822 2cbe b471 313e 5b73 31be 94b2 2abe
00000140: d6c7 a13d dc58 60be 782d fbbc 4754 e83d
00000150: 0184 79be b501 f9bd dfac a63e 01f2 903e
00000160: 4b13 303e db45 373e c409 a7bd 4751 783e
00000170: c952 8a3d 718a 2dbb abc2 2a3e 7d26 cbbd
00000180: 9cff 893e 3feb bcbd c37c 89be 2c59 2fbe
00000190: 8770 b8bc edef 413e f6a3 943e 213d 26be
000001a0: 041e 86bc 9acf 283e d36a 83be 3052 c73e
000001b0: 764f a9be 410a ac3d 399f 923c fdd7 03be
000001c0: 7738 1d3e d046 33be d02a 8abe 6a0e 11be
000001d0: 6bc1 a63d a174 91be 28c6 e6bd 7273 0e3e
000001e0: 3f88 1ebe e652 ce3e 089c 2abd 62a8 773e
000001f0: 863b 6fbe 209c 1c3e f9f2 92bd a9a0 43bd
00000200: 21b4 03be f159 47bd 71f8 86bd c11c 6fbd
00000210: bb4a 9abe 4249 8bbe 32fc 0ebe 5746 b8be
00000220: 1e70 bc3d 89d0 a43d 92fa 90be 37fa 14be
00000230: dac1 823e d2ce ca3e f8a3 883e a3f9 1d3e
00000240: 5940 03be ff78 a4be e321 5ebd 69f8 7a3e
00000250: 7d0a 94bd e0fc 113e 2003 6f3e 4ca0 53be
00000260: c6fa fe3d 906f 053e 4446 22be 49c2 233c
00000270: 4954 15be f50d 613b 5aed 79be c5d6 a0bd
00000280: 9947 bebd 74c5 eebd 16aa ac3d 6513 81be
00000290: 8ade f13d c0b2 693d f445 2fbe 5fea 6fbe
000002a0: b8fe 3ebe 8aaf 82bd 1d5d edbd 883c e33d
000002b0: 2a3a 173e 2670 213d 3978 953e 6034 c9bc
000002c0: 4d9f 443d d509 70be eb0b 79be 3155 143d
000002d0: 4ec0 1abe 174f 3cbd d6d2 133e e1e8 bb3d
000002e0: 42ab 54bc 9148 863d 2feb fcbd 24d8 4b3d
000002f0: 4b3c fabd 0e2f 863e 0b88 82bd c14b a6bc
00000300: af62 013e 9493 4abe edd2 82be 87c0 1dbe
00000310: b19c 513d 9930 10bd 4693 63bd 7ee2 78bd
00000320: 4e2d a03d 3be7 0d3e 67a0 3ebd dafe 0bbe
00000330: 6375 333d 2c0f a43e 7a8b 683e 51ee da3d
00000340: dded c83d 33d1 603d 4e1e 313c aff1 58be
00000350: ca31 5cbe e3a3 9bbd 3577 4ebd 7c34 113e
00000360: 95b4 263e 83ad af3e bb38 f4bd f562 5e3e
00000370: d1cd cbbb 1a90 953e 0447 483d 14e2 89be
00000380: 674a 903d 4866 6ebd 361c 1dbd 0838 5a3d
00000390: f36c a2be dcbe e5bd 8f7c 4f3e 2faa a4bc
000003a0: ec0a ccbd 1a51 e03d 85e5 253e 06df 933e
000003b0: a5e8 9bbe 922f bc3e 7b0f 5d3d af5e 98be
000003c0: fc3d 9e3d ccc6 88be c478 553e 972d 06be
000003d0: dc4c 45be f507 abbd 57c6 943e 79ee 00be
000003e0: 4330 83bc 17d8 1b3e d2a8 acbd ec5d a23b
000003f0: 8fdf 35be 8586 ebbd 2a57 ca3c 3f70 533c
0.07723616 -0.23117827 0.20318192 -0.13368854 -0.22848421 0.025198527 -0.03308943 0.12143176
-0.13975877 0.10184523 -0.34803054 -0.0070202537 -0.09300144 0.24953517 -0.09937133 0.16818707
0.27831364 0.15993074 0.2466767 -0.1522217 0.067424856 -0.24214308 -0.078800604 -0.24092798
0.13332215 0.03888601 -0.1638989 -0.27433345 -0.016659772 0.1827855 0.357889 -0.06204063
0.16706383 -0.22436514 -0.203242 -0.001661877 -0.077885374 0.3641829 -0.02539424 0.11046219
0.41903397 -0.16797252 0.26603 0.14432262 0.05409137 -0.16893753 0.1526014 0.18518192
0.3021027 -0.22185145 -0.14914903 -0.2747686 0.019596629 -0.20380506 -0.09635612 -0.108391866
0.039766703 0.1670626 0.1533535 -2.2506934e-05 -0.003645783 -0.019673245 -0.123558804 -0.14870894
0.095865816 -0.16213752 -0.22523518 0.054065786 -0.040863726 0.33005524 0.33224458 -0.039428405
-0.020287424 0.26267797 0.2892512 0.09379501 -0.16810119 0.1732853 -0.17329161 -0.16669685
0.07899444 -0.21908897 -0.03066133 0.113442 -0.24366762 -0.12158529 0.32553765 0.28309634
0.1719486 0.17897741 -0.081561595 0.24249755 0.06754071 -0.0026480223 0.16675822 -0.099194504
0.26952827 -0.09224557 -0.26852998 -0.1712386 -0.022514595 0.1893918 0.29031342 -0.16234256
-0.016371734 0.16485444 -0.25667438 0.38929892 -0.33068436 0.08400393 0.017898189 -0.12875362
0.15353571 -0.17507482 -0.26985788 -0.14165655 0.0814236 -0.28409293 -0.11268264 0.13911226
-0.15481661 0.4029762 -0.04165271 0.24185327 -0.2336255 0.15293932 -0.071752496 -0.04776064
-0.12861682 -0.04866976 -0.06590355 -0.05837703 -0.3013514 -0.2720433 -0.13963392 -0.35991165
0.09201072 0.080475874 -0.2831617 -0.14548574 0.25538522 0.39610916 0.26687598 0.1542726
-0.12817515 -0.32123563 -0.054231536 0.24508823 -0.07228563 0.1425662 0.23341036 -0.20666617
0.12450175 0.13030839 -0.15847117 0.009995052 -0.14582933 0.0034340594 -0.24406949 -0.07853464
-0.09291 -0.11658755 0.08430879 -0.2521011 0.11810024 0.057055235 -0.17116529 -0.23429249
-0.18651855 -0.06381138 -0.115900256 0.1109553 0.14768282 0.039413594 0.29193285 -0.024561107
0.048003484 -0.2344125 -0.24320953 0.036214057 -0.15112421 -0.045973863 0.14435896 0.091752775
-0.012980284 0.0655681 -0.12349545 0.049766675 -0.12218531 0.26207775 -0.063736044 -0.020299794
0.12635301 -0.19782859 -0.2555155 -0.15405475 0.051174823 -0.035202596 -0.055560373 -0.060762875
0.07821141 0.13857739 -0.04653969 -0.13671437 0.04381312 0.32042825 0.22709456 0.106899865
0.09810994 0.054887008 0.010810448 -0.21185945 -0.21503368 -0.07599618 -0.050406653 0.14180177
0.16279824 0.34312066 -0.11924883 0.21717437 -0.0062196036 0.29211503 0.04889585 -0.26930296
0.07045441 -0.05820301 -0.038356982 0.05327609 -0.31723747 -0.11218044 0.20262359 -0.020100681
-0.09963021 0.10952969 0.16200836 0.2888109 -0.3045093 0.36755043 0.05396984 -0.29759738
0.07726666 -0.2671417 0.2084685 -0.13103329 -0.19267601 -0.08351127 0.2905757 -0.1259097
-0.016014224 0.1521915 -0.084306374 0.004955044 -0.17761062 -0.11500267 0.024699766 0.0129051795

lstm.weight_hh_l1 f4 [64, 16]
00000000: f4e6 803d f4ae 0abc 285d 14be 6142 91be
00000010: 67be ff3d 7390 c3bd 0b73 373e 5e4c 1d3e
00000020: 8d55 bb3d 14b1 c53d e928 81bd 8c19 a23d
00000030: 9168 dc3c 8ad0 9cbc 758f f63d 4c7d 5abe
00000040: 77dc 453e e130 1ebd 9511 e13d 716e 55be
00000050: 9992 d33d 209d cebd 5767 1a3d 66d3 3abd
00000060: 5baa a43e e57c aabe 6c83 293a 7e01 913b
00000070: 5299 983e b457 cf3d 684a 183c f032 01be
00000080: 9d3c cdbd 9e5a 6abd 0fa6 5e3e 8b66 ea3c
00000090: cf7b 10be 3959 8d3e c2f6 d83d b9de 6abe
000000a0: bc11 d5bd 7fe3 9cbd 19d2 10bd e34a b5be
000000b0: cd30 883e fd2c 67bd c0f5 9cbe d79f 50be
000000c0: bb2c 02be e0b1 99be 1c35 873e ac27 9dbe
000000d0: c1f4 0fbe 5b81 5a3e cc12 583e 8bf7 23be
000000e0: 8d89 8f3d e962 93bd eb8c 1ebb 8691 97bd
000000f0: cd1a 983e 227e 2e3e 16af d2bd 1148 19bc
00000100: d14b b83e e668 3ebe 593d c53e 3cf5 b7be
00000110: 59df 213d 0eb1 5b3e b433 f83b a707 9bbe
00000120: 2965 873d 6341 b6be 5dd8 1b3d 09a3 57be
00000130: fd83 693e db61 7abb 99c7 37be dcb3 b2be
00000140: a5a5 b63e 5b90 3dbe 7bb0 5a3e 794c babe
00000150: a76e a2be f38e c63e 7426 6d3e 3d71 8ebe
00000160: 4fab 223e e87f 1fbe 4c4a c4bd 6f96 37be
00000170: 6ce2 e33e 9eeb 943e 1086 3cbe f043 85be
00000180: aedd c0bd 1f96 efbd 302f bd3c 7c15 7fbe
00000190: 7e0b 3d3e 3801 46bc a510 bebd 5742 ed3d
000001a0: af6d 863e 4169 91bd dd72 a0be ce72 17bd
000001b0: e218 0e3e 4710 9f3d ea22 0d3d ad8c 24bc
000001c0: 43f6 d53e 7737 4c3d af25 603e 4cbf 83be
000001d0: d645 9fbd 422a 733d 4cbe d83e 07b7 563c
000001e0: cc65 b53c fa59 77bd a1e1 43be a412 f2bd
000001f0: 50b4 913d 1518 cb3d 64fb a33d 3b79 68be
00000200: 4a47 8c3e 0c75 37bd 99dd b53d 362b d23d
00000210: 1091 fabc 4b67 753e a60a c73d 842e 1abe
00000220: 426a 6b3e 96ce c3bc 7057 f73b e9f2 2c3e
00000230: be47 9d3d 5f3b 1b3e 0a9b 89bd 8889 01be
00000240: a9ad 7b3e 3eea 90be 5ae7 12be 1cdb 89bd
00000250: 11bd cf3d 5805 fbbc 6122 bb3d 1822 c5be
00000260: 72ba a13e 751d 6ebe 9305 7fbe f48d 7abd
00000270: 4674 4b3e c81c 6d3e fce3 babe b0d9 a0bd
00000280: 4006 9dbd 3fc5 cf3d a32b 6f3e 5434 5bbd
00000290: 43da 3d3e 52b6 06be 50a7 31bd 660b bebc
000002a0: db47 d13d 3dcf 35be dd34 7d3c 1be2 8b3d
000002b0: b1ec 08be 09ba 463c 804f 12be 9f82 71bd
000002c0: 9fc1 843c 3884 79be 0350 e13e 5077 6bbe
000002d0: 6922 013e 1e1c ca3e 520e e2bd f7b5 f1bb
000002e0: a820 b03e 6f48 2fbd be1f fcbc 1afa 45be
000002f0: 815b 3f3e fd12 083e 26d0 423d 2136 2fbe
00000300: 27b6 afbd 3f73 8d3c 4838 c33d 7210 4ebe
00000310: 0cf9 4d3e 69db b8bd 543d 8abd 6021 b53d
00000320: 968a 9f3d bae3 b83d f800 7ebe 563e 243e
00000330: a6cd 1fbd 371e afbc 5aa8 aebc fd29 253e
00000340: f768 cb3e c5fd bdbe 400f 8a3e 624d 41be
00000350: 0c3b 01be fea3 a23e fd47 863e 7ddc 88be
00000360: 76e6 b03e 8997 35be 72df debe f754 b4bd
00000370: bab5 36bc 8565 c03d 37f3 f8bc 9ceb 03be
00000380: d792 f8bc 4abd 90be 464b 8d3d e4cd dfbe
00000390: 8127 c7bd 6a13 ef3c 0a54 493e 6ae1 48bd
000003a0: bf7c 5c3e 182a b5bb a203 6ebd c702 08be
000003b0: 34e7 003e 1820 5c3d cbe8 80be 2dda 99bc
000003c0: f9ee 2a3d ad46 97bd 36f3 2ebd 0c75 f3bd
000003d0: 6a05 93bc 3234 533e 90b6 8b3e 7ce1 8cbe
000003e0: f230 db3d 1f3d e5bd 4e72 c5bd 888f 8bbd
000003f0: 13d4 4d3e 5e26 813e 3490 513d 8370 d3bd
0.06294051 -0.008464564 -0.14488661 -0.28370956 0.12487488 -0.09549036 0.17914979 0.15361163
0.09147177 0.096529156 -0.06306631 0.07915029 0.02690533 -0.019142408 0.12039081 -0.2133686
0.19322382 -0.038620833 0.10989682 -0.20842911 0.10330696 -0.10088563 0.03769621 -0.04561176
0.3216122 -0.33298412 0.0006466422 0.0044252267 0.29804474 0.1012415 0.009295084 -0.12617087
-0.10021327 -0.057215326 0.21743034 0.02861335 -0.14109729 0.27607134 0.1059394 -0.22936524
-0.10403773 -0.07660579 -0.035356615 -0.35408697 0.26599732 -0.05643939 -0.30656242 -0.20373474
-0.12712376 -0.3001852 0.26407707 -0.3069433 -0.1405821 0.21338408 0.2110092 -0.16012399
0.070086576 -0.071966 -0.002419288 -0.07400803 0.29707947 0.17040303 -0.10287301 -0.009355561
0.35995343 -0.18594703 0.38523367 -0.35929286 0.03951964 0.2145426 0.007574523 -0.30279276
0.06611092 -0.3559676 0.038048137 -0.21058287 0.22804256 -0.00382053 -0.17947234 -0.34902847
0.35673252 -0.18512098 0.21356384 -0.3638647 -0.31725046 0.38780937 0.231592 -0.2782077
0.15885662 -0.15576136 -0.095844835 -0.1792848 0.44508684 0.29086012 -0.18410516 -0.26028395
-0.09417282 -0.11698555 0.02309379 -0.2491054 0.18461415 -0.0120852515 -0.092805184 0.11584919
0.26255557 -0.07100154 -0.31337634 -0.03697472 0.1387668 0.077667765 0.034457125 -0.010043305
0.41789445 0.049857583 0.21889375 -0.25731885 -0.07776992 0.059366472 0.42332685 0.013105161
0.022143267 -0.060388543 -0.1912904 -0.11819962 0.0711447 0.09916703 0.08006933 -0.22702496
0.2739814 -0.04478936 0.08880157 0.10262148 -0.03058675 0.23965184 0.09718828 -0.15056807
0.22989753 -0.023902219 0.007548265 0.16889538 0.07679699 0.15159367 -0.067190245 -0.1265012
0.24577965 -0.28303713 -0.14346066 -0.06731245 0.101434834 -0.030642197 0.09137417 -0.38502574
0.3158756 -0.23253424 -0.2490447 -0.061170533 0.19868574 0.2315551 -0.36502063 -0.078540206
-0.07667208 0.101450436 0.2335649 -0.0535167 0.18540291 -0.13155487 -0.043372452 -0.023198795
0.102187835 -0.17754836 0.015454498 0.068302356 -0.1337154 0.012129315 -0.1428814 -0.05896246
0.016205607 -0.24366844 0.44006357 -0.22994733 0.12610783 0.39474577 -0.11037888 -0.007376428
0.34399915 -0.042793687 -0.030776855 -0.19333687 0.1868725 0.13288493 0.047561787 -0.17110492
-0.08579665 0.017266868 0.09532219 -0.20123461 0.20114535 -0.09026224 -0.06749979 0.088442564
0.07790105 0.090278104 -0.24805057 0.16039404 -0.03901448 -0.021376712 -0.02132051 0.16129299
0.3972852 -0.37107673 0.2696476 -0.18877175 -0.12620181 0.3176574 0.26226798 -0.2673072
0.34550828 -0.17733587 -0.4352985 -0.08805268 -0.011151725 0.09394363 -0.030389411 -0.12882847
-0.030343456 -0.28269416 0.06899123 -0.4371177 -0.09724332 0.029184062 0.19660965 -0.049043097
0.21531962 -0.0055286996 -0.058108933 -0.1328231 0.12588197 0.053741544 -0.25177607 -0.018780792
0.04173181 -0.07386527 -0.042712413 -0.11887559 -0.017946918 0.2062538 0.27287722 -0.2751578
0.10702695 -0.111932985 -0.096409425 -0.06814486 0.20100431 0.25224584 0.051162913 -0.10324194

lstm.bias_ih_l1 f4 [64]
00000000: 2179 803e 4c42 d03d d9dc 263e e421 43bd
00000010: f11f 9a3d 5d5a b0bb 1f0a 9d3e 0b30 bc3d
00000020: d272 b6bd c6d6 2d3e 9ef3 b93b 2256 8f3e
00000030: 8a7c 84bc e8ee ab3e 2636 5d3e 362b 5a3e
00000040: 375e ec3d a062 42be 607d 0cbe d351 75bd
00000050: 88cf 1a3e 158a 19bd 1f9a 813e 6d33 3d3e
00000060: 0df7 ef3d 01fb 823e c69a af3d 8e07 f3bd
00000070: da66 edbd c86c 723e 3b53 693e 87f4 e33d
00000080: 546f 183e cb8d 87be ff27 493e 62f5 cb3c
00000090: a8a7 363e be2a 80bd a329 913c cc1d 72be
000000a0: e055 8c3e 0c2a 4dbe 6fbb 2bbe d2fa 4ebe
000000b0: c95e 3c3e 6765 f53d 7a1e 2d3e 4eea 40be
000000c0: 05aa aa3d 1be2 703e 48fa c5bd 64c1 9e3e
000000d0: ad13 653d f7bd 963e 5a9d 403d 2772 c8bd
000000e0: bbb7 89bd 1f5e 2f3e e953 f6bd d359 a53e
000000f0: d1e5 25be ad19 2e3e 2934 dd3c 2dfe 053e
0.25092414 0.10168895 0.16295184 -0.047639742 0.075256236 -0.005381866 0.30671784 0.09188851
-0.08908619 0.16976461 0.0056747934 0.27995402 -0.016172666 0.33580709 0.21602687 0.21305546
0.115414076 -0.18982935 -0.13719702 -0.059892487 0.1511823 -0.0374852 0.25312898 0.18476649
0.11717043 0.25582126 0.085744426 -0.11866675 -0.11591883 0.23674309 0.22785656 0.11130624
0.14886218 -0.26475367 0.19644164 0.024897281 0.17837393 -0.062581524 0.01772005 -0.23644179
0.27409267 -0.20035571 -0.16770719 -0.20212868 0.18395533 0.119822316 0.16906157 -0.1883938
0.0833321 0.23523752 -0.09666878 0.3100692 0.055926967 0.29441807 0.047025062 -0.09787398
-0.06724497 0.17125748 -0.12027723 0.32295093 -0.16200949 0.17001982 0.027002411 0.13085242

lstm.bias_hh_l1 f4 [64]
00000000: 2633 373e 9991 4c3d ed19 9bbd bc3c a13e
00000010: 9b22 4d3e 9101 ab3e 2ec3 c73d d26e 1b3e
00000020: c028 2f3e ed03 69bd ed66 023e 088c 6e3e
00000030: e5a3 053e b4a0 a6bd 1880 2a3e 1f62 f73c
00000040: 7012 213e b70c 8f3e 1e4a 47be fc65 673e
00000050: 2402 b7bd 9eee 0abc 3a18 ac3c 0b9e 79bd
00000060: 6138 583e 8935 41bd e3f8 e63c d718 06be
00000070: 15f4 113e 3c54 073e dee4 173e e7c3 9d3e
00000080: a3f2 983e 52b2 3abe 2185 8c3e edcc 67be
00000090: 13dc 83be 54bb 823e 9479 243e 53c1 5b3c
000000a0: 9979 59bd 8e75 bfbd 1537 69be 23b4 41ba
000000b0: c442 303e 2990 273e 76a1 96be dca9 6ebe
000000c0: 0e99 773e 0465 f93d a5f1 1f3e cf68 9d3e
000000d0: 60e1 9d3e ac6e a33e 1f27 f03b 586d 423e
000000e0: 3126 99bb 0fd0 983b 6fda 743e f7f0 cfbd
000000f0: 9f76 d7bd 9b90 af3e d145 eebd 01bf 643e
0.17890605 0.04994354 -0.07573304 0.3149165 0.20032732 0.33399633 0.097540244 0.15178993
0.17105389 -0.05688851 0.12734576 0.23295605 0.13050802 -0.081361204 0.16650426 0.030198155
0.1572969 0.27939388 -0.19461867 0.22597498 -0.08935955 -0.008479742 0.021007646 -0.060941737
0.21115257 -0.047170196 0.02819485 -0.13095413 0.14253266 0.13215727 0.148334 0.30813524
0.29872617 -0.18232086 0.2744532 -0.22636767 -0.2575384 0.25533545 0.16062003 0.013412791
-0.05309448 -0.09348594 -0.22774918 -0.0007389208 0.17212969 0.16363586 -0.2942006 -0.23306984
0.2417948 0.1217747 0.15619524 0.30744025 0.3083601 0.31920373 0.0073288823 0.18987024
-0.004673742 0.0046634744 0.23911451 -0.10153382 -0.10520672 0.34290013 -0.1163441 0.22338487

fc1.weight f4 [16, 80]
00000000: a738 bdbc 2e34 29bd b4f5 523d b809 213a
00000010: 97bf 373e c746 f93c 3ff0 aebd e239 29bc
00000020: 0631 0a3d ccc8 82bd 8b98 19bd 96d5 013e
00000030: 6649 2abd fa64 b23d 20a3 e83d 3c50 12bc
00000040: ca93 2a3d 7706 1bbc e5df 833d 7880 8f3b
00000050: 7938 7c3e c559 23bc 98d0 8abd 83a5 c1bd
00000060: 4df2 1ebd 40a1 103c 6d4b 76bc 3c60 063e
00000070: ac70 c3bb 693c 113c 8699 b53d 0aec 103c
00000080: acdb 0f3d 90ce 88bd 1ad0 073c 77b8 90bd
00000090: f183 9b3d 52d2 6f3d 0b94 8f3b 446b 08be
000000a0: 7fc8 243d ad8c a8bc b9f9 69bd 8dc7 8cbc
000000b0: ca49 6f3c bb48 2d3d 96fe 9abd 8ca0 c9bd
000000c0: 7919 2f3c ef21 883d 7061 993d 410c 69bc
000000d0: c308 173e 6ad3 a13d 455b 20be ba6c 223e
000000e0: 7a16 53bd 8ad7 64bd c66a 323d 9874 fd3d
000000f0: 34c0 0b3d 120a cb3d 0172 de3d 1926 23bd
00000100: 2d54 f8bd bec7 af3d fd5b ec3d e47d 163d
00000110: 5a29 723e decd fe3d 7bb9 60be 24d0 133e
00000120: a1cc 07be 3fbd e2bd 33b5 c43d b889 5e3e
00000130: b634 5cbc 7c7f 1d3e 835c 6b3e e80f 59bd
00000140: 1e26 073e 2476 aa3a 25be 74bd b909 03be
00000150: 0a2d 99bc 590c 803d 60d1 b03c 3b59 623d
00000160: 64b6 963d fded 993d 8650 c2bd f066 af3c
00000170: 9603 20bd f549 80bd beb8 5c3d b5d6 bc3c
00000180: 849f 0c3e d29c f2bd 9213 adbc a866 65bd
00000190: 973a f13c a4a0 8e3c 4484 8abd 9b22 86bc
000001a0: 1829 b33d 0417 afbd 2bc7 a9bd 1e6c 2f3d
000001b0: effa e03c 7dfd 6bbd a423 c3bd b147 ffbd
000001c0: 0c41 4abd f246 cfbd 80d6 58bd 2399 65bd
000001d0: a725 b03c 26d8 5abd e2df ba3d fbe4 493d
000001e0: ccd2 d63d 1552 cdbc b976 b7bd a281 b6bc
000001f0: 3812 963d e31d 95bd 6a96 8ebd 7e09 7d3b
00000200: 48c8 bc3c 527e f0bd 002b efbd 3f4f fa3c
00000210: d49a 163d 207f 833c e1b2 243e 5c7b 0c3c
00000220: cb93 32bc f29e 823d 5b97 173c d1d2 27bd
00000230: aa02 ad3d 9c05 e4bc edf5 093b ec78 70bd
00000240: 9a35 91ba 3ed6 c2bd e8b9 e2bd 9c63 2dbe
00000250: a2b8 b2bd 9351 59be a9f0 023e a2d1 f1bd
00000260: 50c8 413e 819b 703e f455 5abd 3976 38be
00000270: c592 573c 934c 1bbc 0c0f 34be 24e2 1cbd
00000280: 6295 4dbd 2897 a5bc 6cc2 babd eb07 8d3b
00000290: 2b14 2cbe 4294 60bd 2790 083d 527e 9f3b
000002a0: f0f4 6abd 21ce c4bd b94f a1bd f65a 15bc
000002b0: e000 933d ea8a 533d cc35 f4bb 2da5 ecbc
000002c0: 71b9 c53d fb15 443c 1e49 7e3d e1a9 483c
000002d0: b431 34bd 4081 b4bd 1ae0 133e 9213 b6bd
000002e0: 84eb ed3d b891 683d 1518 07bc a6f3 c2bd
000002f0: ef3f 013e 0996 6c3b 0cc9 92bc a376 1c3d
00000300: b2ef 2d3d d03e 693c 0557 303d 0578 34bd
00000310: 233a 33bd 7434 163d 76f2 043e 2e34 8cbd
00000320: 25d7 03bd 7cc4 ed3d 8c09 12be 27df 3bbe
00000330: 5bab 0d3e 224d a6bd 28aa c8bd fa0e d3bd
00000340: f06b 8e3d ec5b 43bc 4f3d 72bc 45ba edbd
00000350: 7d6e 33bd b6a6 02be 28ad df3d bf3a 88bd
00000360: c08f 5f3c 0311 ae3d 65b2 013d d5dc fabd
00000370: 04ad 6f3d 47da 06be 6841 21be c552 1b3d
00000380: b72a 973d c52b ebbd 5bf0 63be 3ea4 e4bd
00000390: 3a95 cfbb de62 9dbd c7d6 c23d 7f53 57be
000003a0: 6213 093d 70b4 823e 4926 04be 9241 37be
000003b0: 9f4a 173e 35b0 78be 5dce 4dbe 0c67 61bd
000003c0: 2b50 823d 0577 a53d 4fc8 dabd 0f59 41bd
000003d0: f53e a1bd 7bb4 c0bd ad63 9dbc 034b 043d
000003e0: 9b20 84bc c5c4 30bd 4ebc 923d aa73 573c
000003f0: b4be 1fbc 84cb f5bc 480a f2bd 40eb ce3c
-0.023098303 -0.041309528 0.051503852 0.0006143111 0.1794418 0.030429257 -0.08541917 -0.010328742
0.03373816 -0.06385955 -0.037498992 0.12679133 -0.041573904 0.08710666 0.113592386 -0.008930262
0.04164485 -0.009461991 0.06439189 0.0043793283 0.24630918 -0.009970133 -0.06778067 -0.09455397
-0.038805295 0.0088275075 -0.015032631 0.13122648 -0.0059643593 0.008864501 0.08867173 0.008845339
0.035121605 -0.06680024 0.008289361 -0.07066434 0.07593525 0.058550186 0.004381662 -0.13322169
0.04023027 -0.020574892 -0.05712292 -0.017184997 0.014604995 0.04230569 -0.0756809 -0.09845075
0.0106872255 0.06647097 0.07489288 -0.014224113 0.14749436 0.07901652 -0.15659817 0.15861788
-0.051535107 -0.055869617 0.04355886 0.12375754 0.034118846 0.0991403 0.10861588 -0.039831255
-0.1212543 0.0858302 0.11540983 0.036741152 0.23648587 0.1244161 -0.21945755 0.14434868
-0.13261653 -0.11071252 0.096048735 0.21732223 -0.013440302 0.15380663 0.22984509 -0.052993685
0.13198134 0.0013005179 -0.05975165 -0.12796678 -0.018698234 0.06252355 0.021584213 0.055260878
0.07359007 0.07516096 -0.09488015 0.02141139 -0.03906592 -0.06264106 0.05388712 0.023051599
0.13732725 -0.11846317 -0.021127496 -0.056006104 0.029446883 0.017410584 -0.06763509 -0.016373923
0.087480724 -0.08549312 -0.082899414 0.042827718 0.027463404 -0.057614792 -0.09528282 -0.12464846
-0.04937844 -0.101209536 -0.05293894 -0.056054246 0.021502329 -0.05342879 0.091247335 0.04929064
0.10489425 -0.025063554 -0.089581914 -0.02227861 0.07327694 -0.07281091 -0.06962283 0.0038610394
0.02304472 -0.11742844 -0.116781235 0.030555366 0.03676875 0.016051829 0.16083862 0.008574333
-0.010899494 0.06377973 0.009252395 -0.040972535 0.08447774 -0.027834706 0.0021051124 -0.05870907
-0.0011078597 -0.0951352 -0.11070615 -0.16932529 -0.08726622 -0.21222524 0.12787117 -0.118075624
0.1892407 0.2349682 -0.053304628 -0.18013848 0.013157551 -0.009478706 -0.17583865 -0.038301602
-0.05019129 -0.020213678 -0.09119114 0.0043039224 -0.16804568 -0.05482889 0.0333406 0.0048673535
-0.057362497 -0.096096285 -0.07876534 -0.009115925 0.07177901 0.05164615 -0.007452702 -0.028887356
0.09654511 0.011968131 0.06208145 0.012247534 -0.043992713 -0.08813715 0.14440957 -0.088904515
0.11617187 0.056779593 -0.008245488 -0.095191285 0.12622045 0.003610017 -0.017918132 0.03819908
0.04246492 0.014236167 0.04305174 -0.044059772 -0.043756615 0.036671117 0.12983117 -0.0684589
-0.0321876 0.11609742 -0.14261454 -0.18346845 0.13834898 -0.08120181 -0.0979808 -0.10305591
0.06954181 -0.011923771 -0.014785125 -0.11607794 -0.04380654 -0.12758908 0.10921699 -0.0665183
0.0136451125 0.084993385 0.03166427 -0.122491516 0.05851461 -0.13169204 -0.15747607 0.037920732
0.07381194 -0.11482958 -0.22259657 -0.11164139 -0.006334928 -0.07684873 0.09513622 -0.21027945
0.03346575 0.25528288 -0.1290523 -0.17896107 0.1477456 -0.24285968 -0.20098253 -0.055029914
0.06362947 0.08079342 -0.10682737 -0.047204074 -0.07873336 -0.09409424 -0.019212568 0.0322981
-0.016128829 -0.043156404 0.071648225 0.013150135 -0.009750057 -0.03000427 -0.11818367 0.02525866

fc1.bias f4 [16]
00000000: 61fd 15bd 860e bc3d 6d0f 6bbd 14e0 aa3d
00000010: 363e 113d 4c05 213d 0693 b93d a7c5 99bc
00000020: eea0 80bc 33f0 548e faa4 5b3c 6c4b 413d
00000030: c66d 28bd ec23 483d 62d3 213c 0023 20bc
-0.036618594 0.091824576 -0.057387758 0.08343521 0.03545972 0.039311692 0.090612456 -0.018771006
-0.015701737 -2.624667e-30 0.013406033 0.04719107 -0.041120313 0.048862383 0.009877058 -0.00977397
