code/models/sic/thickness/lstm/demo/demo_model_1.pth (torch, 34637 bytes, 22 tensors)

fcs.0.weight f4 [16, 4]
0.048257418 0.2910613 0.47557026 -0.1481269 -0.040190868 -0.1526169 0.21006495 0.46881574
-0.46351743 0.290451 -0.37265566 0.58614624 0.0436585 0.6855062 0.55857825 0.46978438
-0.4400808 -0.42901427 -0.13471803 -0.075078666 0.42426068 -0.19704774 -0.03428389 -0.46720323
-0.12410505 -0.47532642 0.4380022 0.21808437 0.5616943 0.19362712 0.5347174 -0.31557524
-0.07502767 -0.19470724 0.11483203 0.41010648 0.39141738 -0.5279615 0.05336149 -0.27864158
-0.3920091 0.4304969 -0.46190286 -0.4600125 -0.32598665 0.16449833 0.5517588 -0.40836552
0.27085137 -0.5821002 -0.45365345 -0.1105112 0.25306845 -0.21305321 -0.059329312 0.14674307
-0.044508196 0.36468408 -0.48036358 0.088677146 0.14350812 -0.08360179 -0.35227615 0.37462196
00000000: 92a9 453d fd05 953e f27d f33e 94ae 17be
00000010: 2e9f 24bd 9b47 1cbe 441b 573e 9e08 f03e
00000020: 2852 edbe feb5 943e b9cc bebe ae0d 163f
00000030: 41d3 323d 567d 2f3f fcfe 0e3f 9487 f03e
00000040: 4552 e1be c2a7 dbbe 86f3 09be d8c2 99bd
00000050: b238 d93e e2c6 49be 446d 0cbd 4335 efbe
00000060: ca2a febd fc5d f3be d341 e03e 8251 5f3e
00000070: 33cb 0f3f 3046 463e 3de3 083f 1493 a1be
00000080: 1ba8 99bd 5661 47be 0e2d eb3d 7af9 d13e
00000090: dc67 c83e 7c28 07bf 9491 5a3d 1caa 8ebe
000000a0: 6bb5 c8be 176a dc3e 887e ecbe c286 ebbe
000000b0: b9e7 a6be 4072 283e 1140 0d3f 4915 d1be
000000c0: 08ad 8a3e 8504 15bf 4445 e8be b253 e2bd
000000d0: 3092 813e 9f2a 5abe 4b03 73bd d143 163e
000000e0: 3a4e 36bd dfb7 ba3e 37f2 f5be 5d9c b53d
000000f0: cbf3 123e 6a37 abbd 8a5d b4be 73ce bf3e

fcs.0.bias f4 [16]
0.41276452 0.5115424 0.33202186 -0.37447277 -0.5146423 -0.5158745 0.1402607 0.17643137
-0.07627741 -0.36570036 -0.1564409 0.09010919 0.26048234 0.023705423 0.009112364 0.0693564
00000000: df55 d33e 71f4 023f c5fe a93e e5ba bfbe
00000010: 99bf 03bf 5a10 04bf 80a0 0f3e 6daa 343e
00000020: 5537 9cbd 143d bbbe 0b32 20be 2b8b b83d
00000030: f15d 853e e031 c23c 064c 153c ba0a 8e3d

fcs.1.weight f4 [16, 1]
0.35002673 0.14920503 -0.8547523 0.001992759 1.0218024 -0.27357748 0.29818362 -0.07122658
0.91157824 -0.35793343 -0.68325144 0.02948199 -0.46649528 -0.23451121 -0.4731779 0.08900938
00000000: b436 b33e 34c9 183e 0cd1 5abf f398 023b
00000010: 6cca 823f 5912 8cbe 86ab 983e 3edf 91bd
00000020: 315d 693f 0d43 b7be 91e9 2ebf 3784 f13c
00000030: 78d8 eebe b523 70be 6044 f2be 8d4a b63d

fcs.1.bias f4 [16]
0.28011414 0.058095895 0.86678106 -0.37434596 -0.5643861 0.12827083 0.3446765 -0.14746967
-0.10430001 -0.8180803 -1.0163544 0.5675516 0.54145074 -0.6485172 -0.0027051724 0.5089832
00000000: 1f6b 8f3e f6f5 6d3d 5de5 5d3f 46aa bfbe
00000010: 9c7b 10bf 6e59 033e 7079 b03e 4a02 17be
00000020: 3e9b d5bd b66d 51bf e717 82bf 104b 113f
00000030: 849c 0a3f 3905 26bf 4349 31bb b94c 023f

fcs.2.weight f4 [16, 2]
-0.6764582 0.3164321 0.19590922 0.44244507 -0.52410054 -0.09709541 0.4901504 -0.22068428
-0.09181599 0.5008958 -0.66245663 -0.34202203 0.24898645 -0.42626795 0.07056974 -0.43895677
0.59617084 -0.11873326 -0.4032682 -0.6041229 -0.2879637 -0.7069683 -0.2956178 0.017483957
0.19948706 0.18401861 0.17683353 0.50797886 0.4799187 -0.6672278 -0.04567495 0.22359686
00000000: 5d2c 2dbf 6303 a23e 6d9c 483e 2988 e23e
00000010: 742b 06bf f5d9 c6bd fef4 fa3e 0ffb 61be
00000020: 060a bcbd b53a 003f c296 29bf 831d afbe
00000030: 4ef6 7e3e cb3f dabe de86 903d f1be e0be
00000040: a79e 183f 6c2a f3bd 2b79 cebe cca7 1abf
00000050: fa6f 93be e0fb 34bf 375b 97be 843a 8f3c
00000060: 5646 4c3e 606f 3c3e d913 353e e70a 023f
00000070: e7b7 f53e 71cf 2abf a815 3bbd 93f6 643e

fcs.2.bias f4 [16]
-0.11204216 0.17845088 0.17218067 -0.25991672 -0.14784497 0.15298952 -0.4353459 0.27065036
-0.0815774 0.37818483 0.6108714 0.31931785 0.5189174 0.54335743 0.10184377 -0.054165263
00000000: 5c76 e5bd d4bb 363e 2150 303e ce13 85be
00000010: ac64 17be 49a9 1c3e a8e5 debe af92 8a3e
00000020: 0d12 a7bd 71a1 c13e 1162 1c3f a17d a33e
00000030: c5d7 043f 7919 0b3f 7793 d03d 65dc 5dbd

fcs.3.weight f4 [16, 1]
-0.30264995 0.25271818 0.6094017 -0.68900114 -0.40666336 0.48499003 0.95816994 0.1677792
0.5064874 0.75767237 -0.28165725 -0.12241236 0.0211355 -0.928591 0.9321305 0.25752202
00000000: eff4 9abe 4764 813e c001 1c3f 6162 30bf
00000010: 2e36 d0be 9d50 f83e a04a 753f 50ce 2b3e
00000020: 29a9 013f d1f6 413f 6135 90be 55b3 fabd
00000030: 5b24 ad3c 24b8 6dbf 1ba0 6e3f edd9 833e

fcs.3.bias f4 [16]
0.82111603 -0.033796135 -0.6983971 -1.0632164 0.027006479 0.6581247 0.37515214 -0.71335185
0.8747975 -0.9023736 0.8700362 -0.33459726 0.90582097 -0.6797206 0.045705 -0.70559394
00000000: a934 523f d16d 0abd 27ca 32bf 7a17 88bf
00000010: b13c dd3c dc7a 283f f113 c03e 3a9e 36bf
00000020: bbf2 5f3f f501 67bf b1ba 5e3f 5550 abbe
00000030: e2e3 673f 2b02 2ebf 2b35 3b3d cea1 34bf

fcs.4.weight f4 [16, 4]
0.19547068 0.34284675 0.56739587 0.020547405 0.53581005 0.106958345 -0.15652546 0.08021447
-0.3995792 -0.03602626 0.6411794 0.33644208 -0.22540286 -0.4020625 -0.27486393 -0.48830053
0.28741348 -0.34003234 0.29938433 -0.2813587 0.014602453 0.083553635 -0.6926606 -0.23509175
-0.27696636 -0.022004874 -0.1950316 -0.25953412 -0.17547709 -0.51127505 0.23984663 -0.091891706
0.16948043 -0.4008794 0.094798416 0.5504606 -0.124810934 -0.07160362 -0.20776933 -0.22599529
0.009876492 0.10283381 0.2460646 0.20195827 -0.49456742 0.26924863 0.26507246 -0.1570254
-0.23117222 0.18872058 -0.65329415 0.013585787 -0.52682245 -0.15696318 0.089207016 0.22102371
-0.26278335 0.08692665 -0.513369 -0.08730055 0.1595367 -0.28298503 0.119507976 0.36081037
00000000: 7729 483e 9c89 af3e db40 113f 0853 a83c
00000010: d92a 093f fa0c db3d 3648 20be 7c47 a43d
00000020: a595 ccbe 4690 13bd 5524 243f 2342 ac3e
00000030: 02d0 66be 23db cdbe f7ba 8cbe 8702 fabe
00000040: dc27 933e b818 aebe e748 993e 3f0e 90be
00000050: 213f 6f3c 2b1e ab3d 3552 31bf e4bb 70be
00000060: 89ce 8dbe 9143 b4bc 5db6 47be a8e1 84be
00000070: 44b0 33be ece2 02bf 5b9a 753e b831 bcbd
00000080: 478c 2d3e 1140 cdbe ac25 c23d fcea 0c3f
00000090: e09c ffbd eba4 92bd 7cc1 54be 4f6b 67be
000000a0: 03d1 213c 889a d23d 5cf8 7b3e 26ce 4e3e
000000b0: f137 fdbe f5da 893e 94b7 873e 44cb 20be
000000c0: 69b8 6cbe f83f 413e 493e 27bf ec96 5e3c
000000d0: d6dd 06bf f5ba 20be 2bb2 b63d 0a54 623e
000000e0: 8a8b 86be 9906 b23d 276c 03bf a1ca b2bd
000000f0: 975d 233e 6ae3 90be 99c0 f43d 23bc b83e

fcs.4.bias f4 [16]
-0.018832682 0.26397845 0.09132492 -0.19989076 0.46116394 0.32399994 -0.41347975 0.13292183
-0.18093105 -0.24542966 0.22607557 0.27538913 0.40894714 -0.5418281 0.4288696 -0.3374099
00000000: ff46 9abc 2f28 873e 8f08 bb3d 2ab0 4cbe
00000010: ae1d ec3e 52e3 a53e 9eb3 d3be a91c 083e
00000020: fd45 39be ea51 7bbe 5b80 673e ceff 8c3e
00000030: 8561 d13e 3fb5 0abf cc94 db3e fec0 acbe

lstm.weight_ih_l0 f4 [64, 16]
-0.16330278 -0.25411272 -0.0968311 -0.35949305 0.05664631 0.1443877 0.10026877 -0.23564325
0.27293217 -0.19297141 0.29907653 0.1678658 -0.056501944 0.054932315 0.007752004 -0.15376918
0.14272434 -0.12904091 0.025738934 -0.21805358 -0.11483395 0.1382019 -0.03172633 0.11742259
-0.06350159 -0.11220713 -0.020894786 -0.094969496 0.13673809 -0.3755191 0.15398987 0.15073754
0.031058596 0.19790879 -0.019723097 0.12400499 -0.13604231 0.2948772 -0.18870004 -0.093310535
0.08667659 -0.24878347 0.0017578037 -0.27571902 -0.021666588 -0.26445472 -0.06893806 -0.06676056
-0.10353705 0.22528224 0.426864 0.25049266 -0.21080421 -0.2554412 0.28682363 -0.18262966
0.34480235 0.0016499945 0.3199214 -0.28847724 -0.1870114 -0.20316318 0.017428895 0.23308465
-0.030656222 -0.18906394 -0.03109997 0.16451801 -0.07775574 -0.15633097 -0.20664969 -0.16663018
0.24754566 0.0018943002 0.14284758 0.20363715 0.2091102 -0.12028346 0.30796674 -0.3140373
-0.13842237 0.036040615 0.1924522 0.2713791 0.20290154 -0.3999178 -0.0020914385 -0.17018346
0.02038903 -0.20803255 0.16192849 0.009425348 -0.13166593 0.25436085 -0.25803974 -0.12613654
-0.024586082 0.022724349 0.16624334 -0.3319509 0.27087712 -0.12623906 -0.3646266 -0.21577045
-0.09149318 -0.17612897 0.28743222 -0.35256577 0.14757934 0.25973776 -0.0441052 0.14897509
-0.4296417 0.15076295 0.15578385 -0.050714288 0.15472792 -0.11714023 -0.077689044 -0.19580775
-0.18337262 -0.035216704 0.1344425 -0.08806203 0.16720228 -0.2178982 0.29783806 0.18164681
-0.23180646 0.15070954 0.054739937 -0.11108999 0.18852106 -0.09298001 0.14996208 -0.2279923
-0.19905038 -0.093108505 -0.011196614 -0.01541623 -0.02978482 -0.31205112 0.17327982 0.050995156
0.42628658 -0.38900727 -0.0075620725 -0.09532301 0.12728362 0.08280383 0.16105899 0.3170953
0.047958046 0.17163156 0.096921936 0.32556975 0.186226 0.04737777 -0.1112262 -0.19648968
0.26223847 -0.02615063 0.22602224 -0.26006663 0.05339052 -0.11708737 -0.006724604 -0.08815962
-0.095684364 0.11015459 -0.021913636 0.19654119 -0.14875585 0.037360027 -0.062042195 -0.298744
0.21755591 -0.27501827 -0.29583028 -0.36315352 0.2241509 0.18392067 -0.09384812 0.2258054
0.11021365 -0.24215263 -0.072032966 -0.025697157 0.07493379 0.15063603 -0.29177603 0.023133008
0.005865512 -0.4020035 -0.13845086 -0.23777929 -0.17783053 -0.031747162 -0.10055419 -0.21003275
-0.0037289406 -0.048442565 0.21334428 -0.22340958 0.107553475 -0.19768845 0.12147955 -0.092303604
-0.015026558 -0.13202874 0.1267156 -0.29686096 0.18295872 0.11102475 0.09233014 -0.2957148
-0.10048897 -0.15733276 0.29186094 0.18620606 -0.14457844 -0.034294445 -0.019468952 -0.12789223
0.29168883 -0.15988238 0.11137092 0.4029913 -0.30361328 -0.22941703 -0.020830084 0.09815686
-0.14331415 -0.4189441 0.14055477 -0.20161475 -0.12523152 -0.22009596 0.15325241 -0.015472271
-0.005089617 -0.035976205 -0.11240861 -0.1649457 -0.21183197 -0.0648716 -0.083390854 -0.29784703
-0.31690332 -0.26356208 0.1258165 0.010666137 0.075013116 0.066590555 -0.08282509 -0.10935106
00000000: d838 27be 101b 82be 624f c6bd 790f b8be
00000010: f605 683d 5fda 133e b659 cd3d 774c 71be
00000020: c4bd 8b3e 4c9a 45be 8f20 993e 03e5 2b3e
00000030: 956e 67bd b500 613d 8604 fe3b ab75 1dbe
00000040: 5426 123e 4d23 04be 75da d23c 7049 5fbe
00000050: 102e ebbd cd84 0d3e 78f3 01bd 417b f03d
00000060: 1f0d 82bd dacc e5bd 8b2b abbc 5e7f c2bd
00000070: 1205 0c3e 0a44 c0be 85af 1d3e f15a 1a3e
00000080: 996e fe3c 9aa8 4a3e 5592 a1bc 54f6 fd3d
00000090: ad4e 0bbe 25fa 963e 953a 41be 9819 bfbd
000000a0: 7f83 b13d 18c1 7ebe 1b66 e63a 0b2b 8dbe
000000b0: 217e b1bc 9c66 87be 662f 8dbd c3b9 88bd
000000c0: 3c0b d4bd 63b0 663e eb8d da3e 9340 803e
000000d0: 0fdd 57be 30c9 82be 8cda 923e 4503 3bbe
000000e0: ef89 b03e a144 d83a bdcc a33e 4ab3 93be
000000f0: eb7f 3fbe 020a 50be 0bc7 8e3c bead 6e3e
00000100: c222 fbbc fa99 41be 5dc5 febc 6977 283e
00000110: 673e 9fbd 3a15 20be fa9b 53be 1aa1 2abe
00000120: 9c7c 7d3e 2b4a f83a a346 123e 4286 503e
00000130: fc20 563e 2d57 f6bd d1ad 9d3e 7fc9 a0be
00000140: 98be 0dbe 539f 133d 3112 453e 34f2 8a3e
00000150: 6cc5 4f3e 07c2 ccbe 8410 09bb 9344 2ebe
00000160: e506 a73c 7c06 55be 95d0 253e c66c 1a3c
00000170: 6fd3 06be 963b 823e c91d 84be f029 01be
00000180: c068 c9bc 6a28 ba3c b23b 2a3e 78f5 a9be
00000190: 68b0 8a3e d044 01be 56b0 babe eef2 5cbe
000001a0: c760 bbbd 275b 34be 512a 933e 8083 b4be
000001b0: 0a1f 173e 59fc 843e a7a7 34bd ed8c 183e
000001c0: fff9 dbbe 9a61 1a3e cd85 1f3e c9b9 4fbd
000001d0: ff70 1e3e 38e7 efbd 6f1b 9fbd d481 48be
000001e0: 08c6 3bbe 643f 10bd 4bab 093e de59 b4bd
000001f0: 1337 2b3e b520 5fbe 3b7e 983e 9f01 3a3e
00000200: ac5e 6dbe 9a53 1a3e fc36 603d 2683 e3bd
00000210: aa0b 413e 4e6c bebd a98f 193e d076 69be
00000220: ddd3 4bbe acaf bebd 0172 37bc 5b94 7cbc
00000230: 4bff f3bc 2ac5 9fbe 4470 313e 4ce0 503d
00000240: 3c42 da3e f62b c7be 43cb f7bb b638 c3bd
00000250: a356 023e 0e95 a93d a6ec 243e 515a a23e
00000260: a86f 443d 2fc0 2f3e 027f c63d 14b1 a63e
00000270: 07b2 3e3e 310f 423d 90ca e3bd 9734 49be
00000280: 1f44 863e d939 d6bc 6072 673e 7427 85be
00000290: 05b0 5a3d 81cb efbd 115a dcbb 088d b4bd
000002a0: 2af6 c3bd bb98 e13d 3a84 b3bc 1842 493e
000002b0: 7453 18be d406 193d f51f 7ebd f9f4 98be
000002c0: fac6 5e3e 32cf 8cbe 1177 97be 42ef b9be
000002d0: d087 653e b355 3c3e 7133 c0bd 8839 673e
000002e0: b2b7 e13d dcf6 77be 0586 93bd d882 d2bc
000002f0: e376 993d 5540 1a3e ab63 95be 6f81 bd3c
00000300: 7b33 c03b 67d3 cdbe 10c6 0dbe 6a7c 73be
00000310: 3519 36be 5009 02bd 5bef cdbd d312 57be
00000320: 3e61 74bb b66b 46bd ec76 5a3e 7bc5 64be
00000330: ff44 dc3d d76e 4abe 45ca f83d ac09 bdbd
00000340: f431 76bc 8b32 07be bcc1 013e 29fe 97be
00000350: 8859 3b3e f260 e33d 9617 bd3d ee67 97be
00000360: 29cd cdbd d71b 21be cc6e 953e cdac 3e3e
00000370: 5f0c 14be 5578 0cbd 5a7d 9fbc 2ef6 02be
00000380: 3d58 953e 35b8 23be 7016 e43d e054 ce3e
00000390: 3373 9bbe 4cec 6abe daa3 aabc 7706 c93d
000003a0: f2c0 12be d77f d6be 97ed 0f3e 1974 4ebe
000003b0: b13c 00be d660 61be 33ee 1c3e 687f 7dbc
000003c0: cdc6 a6bb c95b 13bd 7c36 e6bd 87e7 28be
000003d0: 7bea 58be 67db 84bd d3c8 aabd 687f 98be
000003e0: 2741 a2be 9cf1 86be 0ad6 003e 05c1 2e3c
000003f0: 7aa0 993d a160 883d 33a0 a9bd 73f3 dfbd

lstm.weight_hh_l0 f4 [64, 16]
-0.103098184 0.21393411 -0.23247355 -0.23806204 0.087372385 -0.14467205 -0.014347616 0.026780942
-0.102178074 -0.025901176 -0.08906693 0.14068444 -0.22389238 0.36662987 0.0131917605 0.238131
0.15986204 0.13343142 0.105354145 -0.21132515 -0.32206246 -0.33320004 0.09951115 0.3618341
-0.0147643 0.04183394 -0.034871798 -0.059166852 -0.15830411 0.163697 -0.067921504 0.45560917
-0.10173881 0.20339751 -0.13895799 -0.39196512 -0.16415295 0.072606884 0.10438493 0.23663391
-0.3650953 0.18414171 -0.068623506 -0.07741352 0.042904228 0.18305753 0.07675837 0.20986593
0.11351875 0.02677968 -0.05244266 0.17890055 -0.25148576 -0.0698791 0.19082479 0.24740085
-0.06138262 0.26665255 0.2376166 0.26131615 -0.13915445 0.29015705 -0.17694125 -0.08171277
0.2296267 -0.19094108 0.12242159 -0.099440515 -0.3070382 -0.09054089 0.12701163 0.3281487
-0.13068417 0.015274494 0.16564834 -0.030594446 -0.18667181 -0.10226064 -0.31672952 0.005013882
-0.18551318 0.01143232 0.17776477 0.33404207 0.10636151 -0.2334322 0.01877104 -0.25696704
-0.06031611 -0.095969394 0.11009873 0.14759387 0.31486702 0.12442036 0.23758593 -0.014378465
0.05702606 0.025544984 -0.03570675 -0.059330467 -0.369271 -0.30497307 -0.3388208 0.22623432
0.041755777 -0.22854406 -0.071818136 0.332376 -0.09767382 0.02383495 -0.07265087 0.21807545
0.23494765 0.29699177 -0.10384496 -0.28334975 -0.014996182 0.1750389 0.20522645 0.14395848
-0.17221914 0.3273838 0.3783419 0.27914575 -0.3471724 0.34197092 0.04282289 0.053236317
0.21455869 -0.02892557 -0.21737319 0.08690019 -0.13904823 -0.09720124 0.25357765 0.3436274
0.04707474 -0.14875247 0.26775062 0.122570805 0.018063454 0.2505997 -0.26478237 0.1676061
0.023997778 0.032081533 0.13324653 -0.0056670755 -0.11695123 -0.30673847 -0.2831548 -0.061047766
0.051890694 -0.15574333 0.13797988 0.18856946 0.10260255 0.27784595 -0.10881947 -0.1993083
0.07445697 -0.056950375 0.061995517 0.0044730795 0.036640372 0.20952241 -0.21751559 0.06689945
-0.21268445 -0.10665099 0.30304325 -0.14545344 0.0015940199 -0.008783569 -0.23760681 -0.2121446
-0.056876924 -0.1486368 -0.15487331 -0.13048041 0.16370714 -0.080059454 -0.04073834 0.17205966
0.06801558 -0.059667245 0.37471727 0.1452701 0.111382015 0.29778174 0.2284522 -0.075784944
0.09345977 0.2525876 0.12895569 0.08255501 -0.36292392 -0.1352492 -0.1336916 0.0860749
-0.06378911 0.14130986 0.077845015 0.21312273 0.15673895 0.099196844 -0.15921474 0.029996384
0.37034863 0.22033247 -0.24489406 0.19323052 0.031695273 -0.14519024 0.114337936 0.3126022
0.17945862 0.048851036 -0.060503382 -0.033064086 -0.043478824 0.18041389 0.19880514 -0.13020495
0.07367211 0.057108033 -0.26117042 -0.20617776 -0.1250093 -0.04210832 -0.15421213 -0.13275817
-0.310426 -0.1208996 -0.26121697 -0.12732239 0.03852611 0.18576905 0.012557304 -0.0768237
0.009462661 0.02471873 0.25966406 0.23918243 -0.10600602 0.1697157 0.032623287 0.035456337
0.23120293 0.123630226 0.112176545 0.31280005 0.1793373 -0.033014324 0.17781147 -0.037669405
00000000: 2425 d3bd 8b11 5b3e 8c0d 6ebe 89c6 73be
00000010: 4bf0 b23d e924 14be 4312 6bbc b563 db3c
00000020: bd42 d1bd b42e d4bc b968 b6bd 950f 103e
00000030: 0b44 65be e9b6 bb3e 4122 583c 9dd8 733e
00000040: e0b2 233e 3fa2 083e eac3 d73d 9f65 58be
00000050: 5fe5 a4be 3299 aabe 80cc cb3d 5242 b93e
00000060: f6e5 71bc 115a 2b3d bbd5 0ebd f158 72bd
00000070: 791a 22be 30a0 273e 6e1a 8bbd 9b45 e93e
00000080: 705c d0bd 7047 503e 014b 0ebe a7af c8be
00000090: b617 28be ebb2 943d c4c7 d53d 2950 723e
000000a0: c5ed babe a58f 3c3e 7b8a 8cbd fb8a 9ebd
000000b0: 58bc 2f3d 6f73 3b3e 7e33 9d3d 18e7 563e
000000c0: 857c e83d 0f61 db3c 1dce 56bd b531 373e
000000d0: bec2 80be c61c 8fbd 9367 433e a656 7d3e
000000e0: 586c 7bbd af86 883e c451 733e 3bcb 853e
000000f0: 817e 0ebe 778f 943e 1630 35be 0659 a7bd
00000100: 4323 6b3e 0f86 43be 2cb8 fa3d 78a7 cbbd
00000110: 1c34 9dbe 816d b9bd 560f 023e 1b03 a83e
00000120: 12d2 05be df41 7a3c b89f 293e 34a1 fabc
00000130: e526 3fbe 076e d1bd 5f2a a2be 7e4b a43b
00000140: 2bf7 3dbe a04e 3b3c f807 363e 9007 ab3e
00000150: 10d4 d93d da08 6fbe b9c5 993c 2f91 83be
00000160: 060e 77bd 9a8b c4bd 717b e13d d922 173e
00000170: 4036 a13e 1ad0 fe3d ba49 733e a793 6bbc
00000180: 2894 693d b743 d13c 3e41 12bd 8104 73bd
00000190: 1711 bdbe 6e25 9cbe eb79 adbe f8a9 673e
000001a0: 1b08 2b3d 7407 6abe 6315 93bd 302d aa3e
000001b0: 3609 c8bd 8341 c33c fbc9 94bd 2c4f 5f3e
000001c0: 1e96 703e 4e0f 983e abac d4bd 3813 91be
000001d0: 8cb2 75bc 663d 333e e226 523e da69 133e
000001e0: 375a 30be d99e a73e 08b6 c13e 31ec 8e3e
000001f0: 95c0 b1be d016 af3e 0e67 2f3d 530e 5a3d
00000200: 46b5 5b3e 51f5 ecbc 1497 5ebe baf8 b13d
00000210: a962 0ebe 7211 c7bd eed4 813e eeef af3e
00000220: 71d1 403d 9152 18be 9c16 893e 6706 fb3d
00000230: cff9 933c 9b4e 803e 8e91 87be efa0 2b3e
00000240: fd96 c43c ed67 033d c771 083e e0b2 b9bb
00000250: 2084 efbd d30c 9dbe aaf9 90be 390d 7abd
00000260: 568b 543d 2e7b 1fbe 994a 0d3e 5a18 413e
00000270: 4921 d23d d341 8e3e bedc debd 7a17 4cbe
00000280: e57c 983d cc44 69bd 03ef 7d3d e992 923b
00000290: 3714 163d 0b8d 563e 68bc 5ebe 9402 893d
000002a0: f4c9 59be d66b dabd 7c28 9b3e bff1 14be
000002b0: 6fee d03a f5e8 0fbc 334f 73be 6f3c 59be
000002c0: c7f7 68bd 3f34 18be 1c97 1ebe a89c 05be
000002d0: d8a2 273e 36f6 a3bd 3fdd 26bd 6830 303e
000002e0: c14b 8b3d a465 74bd f1da bf3e afc1 143e
000002f0: 411c e43d d976 983e 60ef 693e 2335 9bbd
00000300: d667 bf3d 2953 813e f60c 043e 9a12 a93d
00000310: 2ad1 b9be c47e 0abe 73e6 08be 0a48 b03d
00000320: dda3 82bd 88b3 103e 356d 9f3d d83c 5a3e
00000330: 2d80 203e b727 cb3d 3009 23be faba f53c
00000340: 569e bd3e d69e 613e 82c5 7abe 39de 453e
00000350: e7d2 013d c0ac 14be 022a ea3d 650d a03e
00000360: 00c4 373e 0618 483d 65d2 77bd 356e 07bd
00000370: da16 32bd 6bbe 383e 9393 4b3e 7254 05be
00000380: 67e1 963d 1dea 693d 21b8 85be 4320 53be
00000390: 7002 00be c679 2cbd c9e9 1dbe c2f1 07be
000003a0: 28f0 9ebe 369a f7bd 3bbe 85be cd60 02be
000003b0: 8ecd 1d3d 3e3a 3e3e 27bd 4d3c be55 9dbd
000003c0: 4709 1b3c ef7e ca3c b0f2 843e 3dec 743e
000003d0: af19 d9bd f4c9 2d3e ff9f 053d aa3a 113d
000003e0: 76c0 6c3e d831 fd3d d1bc e53d 5427 a03e
000003f0: 32a4 373e 073a 07bd 3614 363e 3c4b 1abd

lstm.bias_ih_l0 f4 [64]
-0.082958594 -0.017670503 -0.0032399069 0.27350864 -0.17375255 0.21747723 0.15691152 -0.055938266
0.04072219 -0.0011006789 0.08020073 0.35204017 0.2955066 -0.10135823 -0.10757476 0.33537957
0.25610185 -0.102875166 -0.05838948 -0.05990718 -0.07410361 0.080488026 -0.0812822 0.14303544
0.06253028 -0.020943329 -0.109017536 -0.028334249 0.3070809 0.0064095724 0.39421046 0.14924127
0.16701175 -0.13974668 0.008646003 -0.059662554 0.09752922 -0.00199985 -0.24050243 0.120959036
-0.28988215 -0.06798272 0.11594191 0.21495946 0.14741124 0.119597524 0.023134021 0.12391497
0.3411207 0.3614785 -0.136378 -0.11349489 -0.029124325 0.2320468 0.103185 -0.014842441
0.123737134 -0.09363481 -0.12858118 0.07558879 0.03524268 -0.012956082 0.08011345 0.08210498
00000000: 32e6 a9bd bbc1 90bc 9e54 54bb 5309 8c3e
00000010: 30ec 31be 5ab2 5e3e 6aad 203e 861f 65bd
00000020: 50cc 263d a844 90ba 4840 a43d 9c3e b43e
00000030: a44c 973e e794 cfbd 2850 dcbd dfb6 ab3e
00000040: c81f 833e 37b0 d2bd cf29 6fbd 3b61 75bd
00000050: a2c3 97bd e8d6 a43d 4877 a6bd e277 123e
00000060: e00f 803d 5891 abbc 9644 dfbd 3a1d e8bc
00000070: b539 9d3e 6407 d23b f4d5 c93e b4d2 183e
00000080: 2105 2b3e c119 0fbe f7a7 0d3c b960 74bd
00000090: 66bd c73d ea0f 03bb 4546 76be 5fb9 f73d
000000a0: 6f6b 94be 863a 8bbd f472 ed3d 551e 5c3e
000000b0: f9f2 163e 8cef f43d 8f83 bd3c 22c7 fd3d
000000c0: 5fa7 ae3e b613 b93e ada6 0bbe 0270 e8bd
000000d0: 2396 eebc ad9d 6d3e a852 d33d b62d 73bc
000000e0: e569 fd3d 9bc3 bfbd c9aa 03be 4cce 9a3d
000000f0: a15a 103d bf45 54bc 8512 a43d a826 a83d

lstm.bias_hh_l0 f4 [64]
-0.021980034 0.33721244 0.2653811 0.03567283 -0.0810965 -0.17307205 -0.07384503 0.299622
0.027148977 0.23426643 0.27941483 0.14191818 -0.02056368 0.13342111 -0.15463796 -0.12076234
0.24467082 -0.046370763 0.23912364 0.08950613 0.28123924 0.096921295 -0.1170858 0.045636434
-0.09338661 0.11996954 0.16086549 0.016997617 -0.127183 0.30142754 0.3477261 0.25574726
-0.037362337 0.11720965 -0.25214264 -0.14845859 -0.29277486 -0.1837361 0.008003088 0.1748958
-0.1062032 -0.21689884 0.17951499 -0.079786405 -0.039174985 0.13133645 -0.09254862 -0.013403595
0.036980752 -0.017488737 -0.07690193 0.1333477 0.22695309 -0.0059427447 0.17570071 0.21125905
-0.09103198 0.119849175 -0.04356588 0.2929115 0.049178936 0.044153623 0.040064126 -0.037960343
00000000: 790f b4bc 1ca7 ac3e 08e0 873e ac1d 123d
00000010: ec15 a6bd cd39 31be 103c 97bd 0e68 993e
00000020: 8867 de3c 8ae3 6f3e 760f 8f3e 0053 113e
00000030: 2a75 a8bc 8b9f 083e 6a59 1ebe 3f52 f7bd
00000040: fd8a 7a3e 45ef 3dbd d4dc 743e fd4e b73d
00000050: 97fe 8f3e ac7e c63d aeca efbd 45ed 3a3d
00000060: 7b41 bfbd 97b2 f53d ecb9 243e 963e 8b3c
00000070: 433c 02be b654 9a3e 2809 b23e 4ef1 823e
00000080: 4009 19bd 9d0b f03d d718 81be 8705 18be
00000090: 96e6 95be 5125 3cbe 621f 033c e217 333e
000000a0: 1081 d9bd bb1a 5ebe c7d2 373e 0e67 a3bd
000000b0: f375 20bd 107d 063e 228a bdbd c19a 5bbc
000000c0: 2179 173d 8a44 8fbc c27e 9dbd 4d8c 083e
000000d0: 6466 683e 5bbb c2bb e3ea 333e 4b54 583e
000000e0: fa6e babd 7c73 f53d 2372 32bd 7ff8 953e
000000f0: da6f 493d 6eda 343d 481a 243d 4e7c 1bbd

lstm.weight_ih_l1 f4 [64, 16]
-0.02135615 0.1374799 0.19774301 -0.29861262 -0.2982091 -0.19279304 0.010962306 0.2871035
-0.0147721665 -0.0666064 -0.05371096 0.02161214 -0.34278318 -0.0038730316 -0.12498276 -0.24205048
0.2116352 -0.10362933 -0.23992726 -0.04283527 0.19099373 -0.1578652 -0.20211887 0.17488275
0.14734605 -0.13293996 -0.016905112 -0.037540246 0.22999065 0.06473383 -0.06519012 0.2232179
0.34572193 -0.007392457 0.20751417 0.089514665 0.031138616 -0.080556475 0.06616539 0.18568182
0.35114074 -0.17840485 -0.1988338 0.06257882 0.22297035 -0.01632989 -0.13391468 0.10040018
0.23550521 -0.0371583 -0.23020066 0.09140756 0.26710764 0.045155663 -0.13740161 0.33282095
-0.11522875 -0.32812408 0.17411184 -0.03633883 -0.12313712 0.04398161 0.3161271 0.022485925
0.4016362 0.13260849 -0.2740438 -0.306421 -0.3050244 -0.029437603 -0.25384387 0.34732938
-0.32443568 -0.064545974 0.15835528 0.34311157 0.04782142 0.09293809 0.20390427 -0.07213753
-0.06512635 -0.23769292 0.19387276 0.0994597 0.27782503 -0.1702675 -0.25265995 0.15173765
0.16937353 0.055242553 0.21161567 0.10397847 0.21538936 -0.10028513 0.35555452 0.28621835
0.06018543 0.3752092 -0.28441715 -0.050439045 -0.04593698 -0.28721535 -0.23341478 0.045720715
-0.017385393 -0.14493579 -0.08202294 0.124985166 0.10284664 -0.041116502 0.17887153 -0.027170796
0.20900834 0.14310561 -0.037428316 -0.2595681 0.32910085 -0.07247282 -0.25321 0.032779805
0.23392674 -0.1445674 -0.13037561 0.34262258 0.26844937 0.2902077 0.16661467 -0.060688064
0.19942792 0.2298862 -0.20482795 -0.038301494 -0.013599548 -0.13070358 -0.2797547 0.39731872
-0.26808795 -0.106034495 -0.13658817 0.07615583 -0.1182455 0.43296677 0.062003918 -0.2325406
0.073091045 -0.089943096 0.33093885 0.21129674 0.023217017 0.016875243 -0.3091629 0.24708031
0.1202482 0.09168814 0.16368346 0.38276166 0.15040435 0.13625981 0.113862425 -0.13828547
0.38170284 -0.034205474 -0.14096452 0.060305864 0.23737608 -0.31303003 -0.23819672 0.3424964
0.3058272 -0.14073314 -0.13501966 0.17700073 0.08152367 0.07482414 0.080395564 0.2981019
0.04542652 -0.15360302 -0.040719558 -0.034286663 -0.26048926 -0.04746285 -0.15479097 -0.026317757
0.12125045 0.15169264 0.23308195 0.11837417 -0.20002037 0.3654804 -0.24435107 -0.27349713
-0.06025609 -0.02276671 0.03740446 0.17414156 -0.07784552 -0.022836966 -0.088711545 0.07201876
-0.09974654 -0.13096718 0.1419859 0.31137496 0.06247827 0.24325791 0.32046035 -0.059889935
0.2720856 -0.25327182 0.04110105 -0.1329573 0.17729075 0.04076335 0.02692941 0.32605445
0.23985879 -0.26397973 0.3009241 0.3227383 -0.10196469 0.17741178 0.15250236 0.23339152
0.3149856 -0.12835032 0.16341247 0.13090275 0.13268417 -0.16213764 0.09537938 -0.07997663
0.14947511 0.0019147394 -0.06332724 0.100230455 -0.11389426 0.08155086 0.04820436 -0.0793892
0.04519167 0.05616636 0.0026275415 0.18986364 -0.07648235 0.0363454 0.15886831 0.2173351
-0.23237172 -0.27217457 0.27445295 0.27544072 -0.03026896 0.34077367 0.14662184 -0.06732139
00000000: 18f3 aebc 88c7 0c3e 257d 4a3e c1e3 98be
00000010: ddae 98be 8a6b 45be 3e9b 333c 3bff 923e
00000020: f506 72bc f068 88bd 0600 5cbd f10b b13c
00000030: 4781 afbe b0d2 7dbb f6f6 ffbd 15dc 77be
00000040: e6b6 583e 9d3b d4bd 7eaf 75be 0974 2fbd
00000050: dc93 433e 6aa7 21be 40f8 4ebe 7714 333e
00000060: e2e1 163e 6a21 08be 977c 8abc cdc3 19bd
00000070: ab82 6b3e 2c93 843d 6682 85bd 3c93 643e
00000080: 7702 b13e 6d3c f2bb 987e 543e 7753 b73d
00000090: 6916 ff3c cbfa a4bd b881 873d 6023 3e3e
000000a0: b8c8 b33e c3af 36be 169b 4bbe 5329 803d
000000b0: 5752 643e 43c6 85bc ee20 09be 9c9e cd3d
000000c0: 4728 713e 4d33 18bd b9b9 6bbe e333 bb3d
000000d0: 55c2 883e 25f5 383d 02b3 0cbe 8267 aa3e
000000e0: 0dfd ebbd e1ff a7be 604a 323e 06d8 14bd
000000f0: 502f fcbd 1026 343d 69db a13e 6734 b83c
00000100: 43a3 cd3e 85ca 073e 784f 8cbe 37e3 9cbe
00000110: 282c 9cbe 2127 f1bc d3f7 81be 28d5 b13e
00000120: 6f1c a6be ae30 84bd e327 223e 52ac af3e
00000130: 65e0 433d 5356 be3d 48cc 503e d7bc 93bd
00000140: f760 85bd c665 73be 9586 463e 87b1 cb3d
00000150: 153f 8e3e 9b5a 2ebe a55c 81be 1d61 1b3e
00000160: 4170 2d3e 0446 623d c7b1 583e aaf2 d43d
00000170: 078f 5c3e 4a62 cdbd 3e0b b63e 368b 923e
00000180: ff84 763d 6c1b c03e 209f 91be 2c99 4ebd
00000190: 6a28 3cbd e40d 93be 4904 6fbe a545 3b3d
000001a0: d06b 8ebc 0c6a 14be a5fb a7bd 39f8 ff3d
000001b0: 42a1 d23d c769 28bd 192a 373e 4a95 debc
000001c0: 4806 563e 478a 123e 6f4e 19bd 1ce6 84be
000001d0: e87f a83e a16c 94bd bea4 81be 1e44 063d
000001e0: 7e8a 6f3e 7a09 14be 2f81 05be 3a6c af3e
000001f0: 3272 893e 1b96 943e 099d 2a3e 0c94 78bd
00000200: d536 4c3e 4a67 6b3e 6bbe 51be 07e2 1cbd
00000210: a3d0 5ebc 29d7 05be 023c 8fbe 5c6d cb3e
00000220: d342 89be 9d28 d9bd c5dd 0bbe 96f7 9b3d
00000230: b22a f2bd d2ad dd3e d2f7 7d3d 1f1f 6ebe
00000240: c2b0 953d 1634 b8bd d170 a93e 2c5e 583e
00000250: 9d31 be3c f33d 8a3c 9a4a 9ebe 9f02 7d3e
00000260: b044 f63d fec6 bb3d a39c 273e 56f9 c33e
00000270: 9903 1a3e b187 0b3e b430 e93d b59a 0dbe
00000280: 8e6e c33e 0a1b 0cbd 0159 10be 4803 773d
00000290: b712 733e 7945 a0be d7e9 73be b05b af3e
000002a0: 6295 9c3e 591c 10be 9842 0abe ae3f 353e
000002b0: e2f5 a63d 663d 993d 6ea6 a43d d0a0 983e
000002c0: 2911 3a3d 1c4a 1dbe 8dc9 26bd 2c70 0cbd
000002d0: d95e 85be 6868 42bd 8681 1ebe 5698 d7bc
000002e0: 2852 f83d 5155 1b3e 09ad 6e3e 286e f23d
000002f0: 24d2 4cbe 3f20 bb3e 2b37 7abe d107 8cbe
00000300: 17cf 76bd 4081 babc 6b35 193d 2a52 323e
00000310: 796d 9fbd 9714 bbbc 66ae b5bd 927e 933d
00000320: ea47 ccbd 431c 06be c064 113e 8a6c 9f3e
00000330: 37e9 7f3d 9a18 793e 6113 a43e 264f 75bd
00000340: ce4e 8b3e d8ac 81be 9359 283d f525 08be
00000350: b58b 353e 78f7 263d 119b dc3c 9cf0 a63e
00000360: 8b9d 753e 5a28 87be b912 9a3e f43d a53e
00000370: ddd2 d0bd 6fab 353e 9429 1c3e 30fe 6e3e
00000380: cb45 a13e 446e 03be 9955 273e 5f0b 063e
00000390: 5cde 073e 6907 26be 4456 c33d caca a3bd
000003a0: 0110 193e fef7 fa3a b6b1 81bd a045 cd3d
000003b0: 6541 e9bd 2304 a73d ef71 453d ce96 a2bd
000003c0: e71a 393d b20e 663d d532 2c3b 9d6b 423e
000003d0: c7a2 9cbd eade 143d 60ae 223e 188d 5e3e
000003e0: daf2 6dbe 775a 8bbe 1985 8c3e 9106 8d3e
000003f0: 9cf6 f7bc e379 ae3e 0924 163e ccdf 89bd

lstm.weight_hh_l1 f4 [64, 16]
0.107312605 -0.08393834 0.011167281 -0.3339792 0.31830177 0.119411945 0.24734695 -0.32181028
0.20070097 -0.11729603 -0.18143596 -0.03818366 -0.029600583 0.10161393 -0.10503877 -0.34080836
0.3306588 0.05193783 -0.07327465 -0.110475466 0.36525697 0.38384882 0.30030116 -0.21455605
0.20899308 -0.21815236 -0.16691546 0.13837528 0.2071842 0.039079554 0.07643224 0.05757552
0.058248773 0.17224342 0.07467501 0.043084733 -0.16117297 -0.0118930675 0.14448924 -0.31891862
-0.109203696 -0.15205377 -0.1650158 -0.15756549 -0.1251093 -0.31360465 0.20106529 -0.17294616
0.2705284 0.02828176 0.20244923 -0.05917627 0.14822444 0.23287855 -0.017345436 -0.26976874
-0.0665393 -0.2601509 -0.23662435 -0.0118767675 0.312405 -0.10011197 0.31573513 -0.22187948
0.23251179 0.09056623 0.09492019 -0.33629748 0.0906581 0.07079734 0.025254438 -0.09063138
0.07322489 -0.21724053 -0.04063977 -0.0027538845 0.26156524 -0.011357562 0.20661831 -0.44829598
-0.22585256 0.23853858 0.25328568 -0.13326661 -0.17756274 0.037443727 0.19602495 0.13230973
-0.07618949 0.17607367 0.12985748 0.17603692 0.015558543 -0.05797199 0.19536382 -0.30596828
0.30965915 -0.011800024 0.38010716 -0.3288988 0.05545948 0.03951235 -0.13039625 -0.07340233
0.2095975 0.015264244 0.033923663 0.41957915 0.07538676 0.0182441 0.08310346 0.053385224
0.06772863 -0.07684642 0.1923412 -0.28304216 0.11733362 0.29496518 -0.038893018 -0.215841
0.2742327 0.12641041 -0.09461063 0.3065854 0.1518567 -0.33800095 0.07218248 -0.086620286
0.19629562 0.059342034 0.3272599 -0.18671012 0.17728613 0.048562773 0.16005023 -0.2145569
0.048869178 -0.3138662 0.13281713 0.30713245 0.06905288 0.047229856 0.4079656 -0.26936382
0.08414838 0.21057752 -0.043247372 0.16008388 0.051037867 -0.14594866 0.22606313 -0.0134588415
0.18316835 -0.29175332 -0.2136598 -0.13993992 -0.080555975 0.14352085 0.11754369 -0.24042849
-0.034205094 -0.07597675 -0.04944778 -0.111077435 0.0052376604 0.028003521 -0.21829815 0.085825115
0.29819065 -0.03974509 0.096866794 0.36081123 -0.10405029 0.13552871 0.02122796 -0.15369453
0.27287498 0.15750311 0.1390716 -0.33334386 0.1768431 0.04964525 0.3394994 -0.04148948
0.15820746 0.021431988 -0.13814026 0.107002676 0.33160982 -0.28162056 0.26538712 -0.24489112
-0.14614978 0.18938094 0.1803212 -0.29328305 0.23467506 0.14474942 -0.018448533 0.042926162
0.37178904 -0.28832415 -0.28244814 0.10942317 0.085412204 0.09293924 0.030783715 -0.32022676
0.1154083 0.05961613 -0.142105 0.05246811 0.106426395 -0.08094274 0.31050843 -0.23082209
0.099034205 -0.07528063 -0.11403012 0.0051789624 0.22154875 0.1152694 0.2651774 -0.21503042
0.1252835 0.17575942 -0.06447085 -0.19578825 0.22926645 0.21810892 0.19102015 0.16512533
0.07749398 0.064275794 -0.20662531 0.03420054 -0.12634972 0.025427885 -0.07722836 -0.20238663
0.11487701 -0.04139799 0.016868962 0.036536336 0.21222068 0.08099309 -0.103904486 0.0248813
0.38027242 -0.10747436 0.019126588 0.1928479 0.12526572 -0.122752935 0.08704026 -0.06577614
00000000: b6c6 db3d dde7 abbd f9f6 363c 52ff aabe
00000010: 73f8 a23e 408e f43d 8548 7d3e 51c4 a4be
00000020: 8e84 4d3e e738 f0bd 59ca 39be 7866 1cbd
00000030: ec7c f2bc f71a d03d 911e d7bd 6f7e aebe
00000040: 1c4c a93e c3bc 543d 0511 96bd f640 e2bd
00000050: f602 bb3e d587 c43e 13c1 993e 95b4 5bbe
00000060: 4802 563e 5563 5fbe e3eb 2abe 40b2 0d3e
00000070: 1828 543e e211 203d 8288 9c3d 4fd4 6b3d
00000080: 4496 6e3d 9460 303e 36ef 983d 9e79 303d
00000090: 870a 25be 24db 42bc fdf4 133e 4d49 a3be
000000a0: 30a6 dfbd fcb3 1bbe e7f9 28be d958 21be
000000b0: a71c 00be ca90 a0be 0fe4 4d3e cc18 31be
000000c0: b382 8a3e 26af e73c da4e 4f3e d162 72bd
000000d0: 26c8 173e b777 6e3e 0418 8ebc 211f 8abe
000000e0: c245 88bd 8032 85be a74d 72be c696 42bc
000000f0: 8cf3 9f3e 8107 cdbd 09a8 a13e 6034 63be
00000100: 9217 6e3e ca7a b93d 8465 c23d 2f2f acbe
00000110: f4aa b93d 32fe 903d 65e2 ce3c f29c b9bd
00000120: eef6 953d 4d74 5ebe e375 26bd 847a 34bb
00000130: e1eb 853e 1115 3abc c093 533e 0d87 e5be
00000140: e545 67be 7543 743e a9ae 813e 0b77 08be
00000150: 02d3 35be 985e 193d c4ba 483e 347c 073e
00000160: 3c09 9cbd a84c 343e 5cf9 043e 0643 343e
00000170: 42e9 7e3c 0a74 6dbd 740d 483e e0a7 9cbe
00000180: a58b 9e3e e354 41bc 689d c23e 6c65 a8be
00000190: 7b29 633d b4d7 213d 9886 05be f653 96bd
000001a0: baa0 563e e116 7a3c 8af3 0a3d 14d3 d63e
000001b0: 6064 9a3d a774 953c 2632 aa3d 77aa 5a3d
000001c0: 4fb5 8a3d a861 9dbd 17f5 443e e7ea 90be
000001d0: 9c4c f03d ad05 973e 494e 1fbd 6c05 5dbe
000001e0: 3a68 8c3e bb71 013e 38c3 c1bd c3f8 9c3e
000001f0: 5380 1b3e 760e adbe 68d4 933d fa65 b1bd
00000200: b801 493e a210 733d 9c8e a73e f030 3fbe
00000210: 7f8a 353e c2e9 463d 35e4 233e ceb4 5bbe
00000220: 0c2b 483d 12b3 a0be 3701 083e 7740 9d3e
00000230: 996b 8d3d 1874 413d dee0 d03e 0eea 89be
00000240: fc55 ac3d a2a1 573e 2824 31bd 07ed 233e
00000250: 150d 513d 9173 15be 187d 673e 7982 5cbc
00000260: 7c90 3b3e b160 95be a2c9 5abe 694c 0fbe
00000270: 88fa a4bd 21f7 123e bfba f03d e332 76be
00000280: a41a 0cbd b399 9bbd c189 4abd 917c e3bd
00000290: aea0 ab3b a467 e53c 8d89 5fbe 14c5 af3d
000002a0: 72ac 983e bfcb 22bd 1962 c63d 40bc b83e
000002b0: 5218 d5bd 0ac8 0a3e 42e6 ad3c 1962 1dbe
000002c0: 45b6 8b3e 7f48 213e c968 0e3e 0cac aabe
000002d0: 5c16 353e d158 4b3d ded2 ad3e dff0 29bd
000002e0: 2301 223e 2392 af3c a474 0dbe 3824 db3d
000002f0: c3c8 a93e 9230 90be d2e0 873e bdc4 7abe
00000300: 4aa8 15be 14ed 413e 1fa6 383e 3229 96be
00000310: a94e 703e 3139 143e 6121 97bc 58d3 2f3d
00000320: 225b be3e 399f 93be 0b9d 90be 4119 e03d
00000330: 98ec ae3d ee56 be3d 212e fc3c c3f4 a3be
00000340: 305b ec3d 0b30 743d f983 11be cde8 563d
00000350: 15f6 d93d 4fc5 a5bd f6fa 9e3e a05c 6cbe
00000360: 72d2 ca3d bb2c 9abd a088 e9bd 49b4 a93b
00000370: addd 623e 5d12 ec3d 55c5 873e ef30 5cbe
00000380: 514a 003e 47fa 333e 4b09 84bd b77c 48be
00000390: d3c4 6a3e f257 5f3e c99a 433e 9d16 293e
000003a0: 2ab5 9e3d 07a3 833d 9695 53be de15 0c3d
000003b0: d261 01be 244e d03c e729 9ebd 713e 4fbe
000003c0: a344 eb3d f090 29bd c730 8a3c 20a7 153d
000003d0: 6150 593e b5df a53d e0cb d4bd ded3 cb3c
000003e0: 11b3 c23e 841b dcbd 5daf 9c3c eb79 453e
000003f0: a845 003e e465 fbbd 2a42 b23d a4b5 86bd

lstm.bias_ih_l1 f4 [64]
-0.06905965 0.08678823 -0.12269955 -0.11382502 0.14149494 0.3127712 0.02867792 0.09503019
-0.07229558 0.18712614 0.046161424 0.24837844 -0.09154366 0.12063839 0.118271515 0.24994846
0.12572639 0.18749958 0.27380243 0.29983208 0.34427422 -0.073505916 0.3562796 -0.17300889
0.23405828 0.048496053 0.03212508 0.25179031 -0.06511921 -0.027220307 -0.10925774 -0.03639011
0.15393163 0.054717317 -0.0138189485 -0.28476185 0.25045773 0.17736273 0.16639912 -0.21547145
0.1915743 -0.22274114 -0.06252275 0.122624286 -0.06844526 0.04968717 0.30319905 -0.27644107
0.32634488 0.24825586 0.27289775 0.26411426 0.08545966 0.19543861 0.008169747 0.13461095
0.14718373 0.27604833 0.28527236 -0.039500017 0.15736696 0.04738301 0.036750924 -0.057623185
00000000: 256f 8dbd 07be b13d e749 fbbd 181d e9bd
00000010: 0de4 103e 8c23 a03e f5ed ea3c 309f c23d
00000020: b40f 94bd ff9d 3f3e c313 3d3d eb56 7e3e
00000030: 3e7b bbbd 4311 f73d 5638 f23d 7df2 7f3e
00000040: 6bbe 003e e4ff 3f3e d52f 8c3e 9783 993e
00000050: b644 b03e 458a 96bd 486a b63e 3e29 31be
00000060: f9ac 6f3e cca3 463d 9695 033d a9ea 803e
00000070: 385d 85bd 1ffd debc 86c2 dfbd cc0d 15bd
00000080: 41a0 1d3e 441f 603d df68 62bc 4ecc 91be
00000090: ff3b 803e 939e 353e 8864 2a3e 8ca4 5cbe
000000a0: 0e2c 443e 4116 64be ed0b 80bd 7122 fb3d
000000b0: 072d 8cbd c684 4b3d e83c 9b3e af89 8dbe
000000c0: ad16 a73e c936 7e3e 41b9 8b3e fc39 873e
000000d0: 7905 af3d 0f21 483e 67da 053c 74d7 093e
000000e0: 55b7 163e 3556 8d3e 380f 923e c5ca 21bd
000000f0: ce24 213e b014 423d 2388 163d 4a06 6cbd

lstm.bias_hh_l1 f4 [64]
-0.14523801 0.19622627 0.0105112335 0.32570583 0.20747112 0.14034356 -0.0027681433 0.2315198
0.22065312 -0.011326929 0.14825231 0.19686234 0.21557713 0.34490278 -0.13892934 -0.024308847
-0.07654845 -0.03617266 0.0033777496 -0.018686632 -0.0987819 0.019483052 0.19232291 -0.056703795
-0.07734899 -0.029586423 0.11077372 0.25922072 0.30175477 0.14208503 0.3185216 0.10934104
0.22846486 -0.13689445 0.26698017 0.050314706 0.075162046 0.28389576 0.16741814 0.14659585
0.06402021 -0.03885233 -0.15633176 0.23624168 0.30761454 -0.06316456 0.32290477 -0.029645024
0.18443723 0.20686585 -0.056872927 0.15096384 0.29057297 0.29218614 0.33971828 -0.10999985
0.08979734 0.21098723 0.16114599 0.26602143 0.08751213 0.08321689 0.13774016 0.21681152
00000000: 46b9 14be 8aef 483e 4f37 2c3c eac2 a63e
00000010: 4f73 543e 39b6 0f3e bd69 35bb 8713 6d3e
00000020: e4f2 613e 9594 39bc 74cf 173e 4896 493e
00000030: 40c0 5c3e 1997 b03e 7e43 0ebe 5923 c7bc
00000040: 6fc5 9cbd c829 14bd 3c5d 5d3b b514 99bc
00000050: 2a4e cabd ec9a 9f3c 4cf0 443e 3d42 68bd
00000060: 2669 9ebd 3a5f f2bc 55dd e23d 94b8 843e
00000070: 9a7f 9a3e bd7e 113e 4315 a33e 32ee df3d
00000080: b1f2 693e 0f2e 0cbe a0b1 883e cb16 4e3d
00000090: 8fee 993d c95a 913e a96f 2b3e 391d 163e
000000a0: 071d 833d 9f23 1fbd 6f15 20be 57e9 713e
000000b0: a77f 9d3e 6c5c 81bd c653 a53e 1fda f2bc
000000c0: 1ddd 3c3e a4d4 533e 96f3 68bd 4496 1a3e
000000d0: fbc5 943e 6c99 953e 8eef ad3e 9a47 e1bd
000000e0: abe7 b73d 090d 583e 7403 253e f633 883e
000000f0: 8f39 b33d 9e6d aa3d c20b 0d3e d703 5e3e

fc1.weight f4 [16, 80]
0.17773853 -0.017325923 -0.080958016 -0.20825687 0.10360423 0.041389335 0.051262338 0.031495776
0.07061771 -0.016585141 -0.101040624 0.1741051 -0.07495968 0.15128183 0.07843758 -0.117690615
0.11813412 -0.16544518 -0.05521323 -0.12603813 0.12025988 0.061694723 0.01553161 -0.10581399
0.10864535 0.052325096 -0.13313565 0.021362629 -0.044035826 -0.10160943 0.1849178 -0.18602698
0.18135005 -0.18387084 0.07464637 -0.10247158 0.09367363 -0.019752935 0.061370693 0.04483557
0.17442214 -0.11827864 0.0075991475 0.042485878 0.063205495 -0.024744477 -0.030654352 0.02640491
0.061648037 0.004359273 -0.11065709 0.028090049 -0.18092893 0.06841931 -0.1886697 0.010246927
0.04554213 0.09702871 0.047779422 0.17291014 -0.16396862 0.033331584 -0.055066608 -0.00440136
0.11380662 -0.11823096 0.00042952958 -0.004060571 -0.26888543 0.014490115 -0.1287871 -0.027554553
0.028468646 0.03045319 0.17422566 -0.01888343 0.020859981 0.15668905 -0.091771014 0.051001165
0.007495087 0.09626525 0.0050166086 -0.104341164 -0.03166108 0.16536967 0.07977689 -0.027229657
0.10009411 -0.027609065 -0.14306326 -0.0919497 0.019579766 -0.005600163 -0.013794569 -0.030206325
-0.026817305 0.045721002 0.12624401 -0.057591908 -0.047567215 -0.024319652 -0.039760027 -0.1317622
0.034483716 -0.085051924 -0.0813282 -0.0513433 0.10450324 -0.19298065 0.078864455 0.038835965
0.12384251 0.12742296 0.059254557 0.03907039 -0.015430253 -0.018062584 -0.019085975 -0.12292254
0.19585282 -0.14965685 -0.14070421 0.086948864 0.024811137 0.00515182 -0.010687637 -0.053113617
-0.130739 0.15229382 0.05490811 -0.106229074 -0.0053607537 0.090988986 0.07330449 -0.17093141
0.03120497 -0.118232585 -0.08723255 -0.16865219 0.033755265 -0.19776572 0.16673636 0.00639346
-0.12881315 0.07582015 0.16992438 -0.11171661 0.15265974 0.044889618 0.19485942 -0.122803256
-0.18390799 -0.17315724 -0.090819515 -0.1479265 0.16040567 -0.03183023 0.19377194 0.036337133
0.019183239 -0.20714408 0.027165191 -0.09188297 -0.071119614 0.0737697 -0.008951289 0.120333776
0.08984797 -0.022209939 0.008048849 0.074157074 0.07061849 0.17967482 0.11218715 -0.06378647
0.048814937 -0.16878033 0.07130415 -0.13013212 -0.025543183 -0.059321694 -0.033812936 -0.02147974
0.12981078 -0.1073217 0.0058054426 0.08854797 -0.083352186 0.11810071 -0.027778806 0.009739322
0.09023713 -0.03693577 0.016993897 -0.0704169 0.015199719 -0.03077913 0.05126237 -0.048326038
0.10349055 -0.09183939 -0.054223053 0.08194726 -0.044547956 -0.01736117 0.14220133 -0.13663627
0.15632908 -0.03408767 -0.015848065 0.12815 -0.09550142 0.06618098 -0.18072344 0.049436234
0.08944603 -0.08103211 0.006570628 0.087888375 -0.050126612 0.15430678 0.09876011 -0.09366131
0.12329488 -0.16051592 0.012501218 0.10818286 -0.16878311 -0.13252212 -0.14166339 0.075732596
0.099527776 0.085716166 0.106837235 0.028363762 -0.13955235 0.022422021 -0.056488845 0.037634417
0.18996572 -0.0918324 -0.073279984 -0.07766266 0.09796966 0.082412966 0.005132638 0.0791096
0.086589135 -0.0643078 -0.028031932 0.10393658 0.00756675 0.026663795 0.06414621 -0.09055522
00000000: 1701 363e 18ef 8dbc 51cd a5bd 4a41 55be
00000010: 742e d43d dd87 293d 75f8 513d b701 013d
00000020: 05a0 903d 90dd 87bc 63ee cebd 9b48 323e
00000030: 7684 99bd a0e9 1a3e e2a3 a03d c707 f1bd
00000040: 4df0 f13d 766a 29be 4527 62bd 2410 01be
00000050: d04a f63d 9bb3 7c3d 4b78 7e3c 01b5 d8bd
00000060: 7481 de3d d752 563d b654 08be ae00 af3c
00000070: e95e 34bd 9b18 d0bd 175b 3d3e db7d 3ebe
00000080: d4b3 393e a348 3cbe 32e0 983d 9fdc d1bd
00000090: f6d7 bf3d e8d0 a1bc d65f 7b3d 81a5 373d
000000a0: b89b 323e 123c f2bd 4502 f93b ac05 2e3d
000000b0: e271 813d eeb4 cabc d61e fbbc 1c4f d83c
000000c0: a782 7c3d 3bd8 8e3b 2fa0 e2bd 1a1d e63c
000000d0: 6f45 39be 6c1f 8c3d a132 41be bae2 273c
000000e0: 628a 3a3d fdb6 c63d 5bb4 433d 5b0f 313e
000000f0: 64e7 27be b386 083d 868d 61bd 4939 90bb
00000100: 7213 e93d 1323 f2bd 7c32 e139 8a0e 85bb
00000110: 5aab 89be f367 6d3c c4e0 03be 16ba e1bc
00000120: 1437 e93c f878 f93c 3668 323e 6cb1 9abc
00000130: 8de2 aa3c 1873 203e 71f2 bbbd 99e6 503d
00000140: 5999 f53b b726 c53d 5d62 a43b d2b0 d5bd
00000150: 0caf 01bd ab56 293e 1162 a33d bb10 dfbc
00000160: 24fe cc3d 682c e2bc 2d7f 12be 2050 bcbd
00000170: bf65 a03c 9281 b7bb 9e02 62bc 4173 f7bc
00000180: f7af dbbc f245 3b3d 1c46 013e 7ee5 6bbd
00000190: d7d5 42bd 023a c7bc 69db 22bd acec 06be
000001a0: cc3e 0d3d b42f aebd 668f a6bd 5a4d 52bd
000001b0: cb05 d63d b89c 45be b083 a13d 7612 1f3d
000001c0: 24a1 fd3d 2a7b 023e e8b4 723d 4608 203d
000001d0: 2ccf 7cbc fcf7 93bc 315a 9cbc d0be fbbd
000001e0: a48d 483e a53f 19be c414 10be 3f12 b23d
000001f0: ba40 cb3c 99d0 a83b 331b 2fbc aa8d 59bd
00000200: 72e0 05be e9f2 1b3e 54e7 603d a18e d9bd
00000210: 43a9 afbb 6f58 ba3d aa20 963d a508 2fbe
00000220: 91a1 ff3c ed23 f2bd fba6 b2bd 29b3 2cbe
00000230: f642 0a3d 1983 4abe f0bc 2a3e 3b80 d13b
00000240: 98e7 03be 9847 9b3d a800 2e3e aecb e4bd
00000250: d652 1c3e 2dde 373d 3a89 473e 4680 fbbd
00000260: 6052 3cbe 2250 31be 95ff b9bd 0b7a 17be
00000270: 6241 243e 6a60 02bd 276c 463e 3fd6 143d
00000280: 2b26 9d3c 941d 54be 8989 de3c 232d bcbd
00000290: 29a7 91bd 9214 973d 6da8 12bc 8e71 f63d
000002a0: 3602 b83d 9ef1 b5bc 52df 033c aadf 973d
000002b0: 6da0 903d adfc 373e 60c2 e53d 7ba2 82bd
000002c0: 2cf2 473d c0d4 2cbe e907 923d 5b41 05be
000002d0: f03f d1bc 4efb 72bd 6f7f 0abd 48f6 afbc
000002e0: 1eed 043e 7bcb dbbd 953b be3b a358 b53d
000002f0: 8db4 aabd c9de f13d 6190 e3bc ad91 1f3c
00000300: 3fce b83d f649 17bd c936 8b3c bc36 90bd
00000310: 3e08 793c 8424 fcbc 7ef8 513d 86f1 45bd
00000320: daf2 d33d 4a16 bcbd fe18 5ebd f7d3 a73d
00000330: eb77 36bd 0339 8ebc 3a9d 113e 61ea 0bbe
00000340: bb14 203e 839f 0bbd cdd3 81bc c139 033e
00000350: 4096 c3bd e589 873d 910f 39be a67d 4a3d
00000360: 7b2f b73d 2af4 a5bd 6c4e d73b d2fe b33d
00000370: 9051 4dbd 9902 1e3e be42 ca3d 80d1 bfbd
00000380: 0782 fc3d 495e 24be e9d1 4c3c fa8e dd3d
00000390: 7bd5 2cbe e1b3 07be 3510 11be b119 9b3d
000003a0: 38d5 cb3d f58b af3d 7bcd da3d 1f5b e83c
000003b0: d0e6 0ebe 63ae b73c d960 67bd 8c26 1a3d
000003c0: 6086 423e a012 bcbd d113 96bd 9a0d 9fbd
000003d0: 51a4 c83d 21c8 a83d b02f a83b 3704 a23d
000003e0: a555 b13d cfb3 83bd 39a3 e5bc b4dc d43d
000003f0: 80f2 f73b 086e da3c 175f 833d 0475 b9bd

fc1.bias f4 [16]
0.1580061 0.00879449 0.00022667393 -0.013020464 0.04356046 0.10716894 0.03444086 0.06587387
0.07038415 0.036626805 0.034050915 0.003363064 0.090674214 -0.05702974 -0.10791939 0.002058266
00000000: 5acc 213e c416 103c 52af 6d39 c953 55bc
00000010: 746c 323d 647b db3d dc11 0d3d e1e8 863d
00000020: 9125 903d fd05 163d f978 0b3d da66 5c3b
00000030: 67b3 b93d 0498 69bd d704 ddbd f9e3 063b
