code/models/sic/thickness/lstm/v7_73thick25_Fold_9_20250726_163757.pth (torch, 35005 bytes, 22 tensors)

fcs.0.weight f4 [16, 4]
00000000: bdba b13e 82e1 e43d 55d4 66bd d7c4 aabc
00000010: 4829 eb3e 2a91 c9be a0b2 343e 5525 b0be
00000020: e91c 013e 2e76 0cbf e5e2 8f3e ddc7 5bbe
00000030: a1d7 e53d 11d0 c7be 4f0a 873c c542 3abe
00000040: 6821 50be b63d 8cbe ddb4 863e a31b ba3d
00000050: e0ba b8bd 9812 de3e 7bcc 223e 2230 dcbd
00000060: 1c33 81bd d696 37be d5a7 86be 2c61 1abe
00000070: 6b56 3b3e ec07 02bf abbf dbbe 06c2 bc3e
00000080: 31dc 41be 66e2 063d ff8c 003e d01a 94be
00000090: 01fe 8f3e b8ba 91bd 1b4f f5bc ca3c aebe
000000a0: 0f42 8a3e af67 d7be 0aaf 7d3e 5d07 aebc
000000b0: 0a83 dbbd 827f 72be f138 673e aa4f 073f
000000c0: 385c 803d 52a6 be3e 11ac dbbe cea8 24be
000000d0: c94b b8be d5b6 92be f7c9 bc3d ab01 42be
000000e0: 4f98 1c3e 8906 80be e09a dcbe 665c 4cbe
000000f0: 9046 0fbf 34f6 3a3e b8fb a3be 33b1 ad3e
0.34712783 0.11175825 -0.05635484 -0.020845814 0.45929933 -0.39368564 0.17646265 -0.34403482
0.12608685 -0.5486783 0.28102794 -0.2146296 0.112227686 -0.3902593 0.016484408 -0.18189533
-0.20325243 -0.27390832 0.26309863 0.090873025 -0.090200186 0.4337356 0.15898316 -0.10751368
-0.063085765 -0.17928633 -0.2629992 -0.1507613 0.18294685 -0.5079334 -0.4291967 0.36866778
-0.18931653 0.032930754 0.12553786 -0.28926706 0.28123477 -0.07115692 -0.029944947 -0.34030753
0.27003524 -0.42071292 0.24773803 -0.021243745 -0.10718353 -0.23681453 0.22580315 0.5285593
0.06267589 0.37236267 -0.42904714 -0.16080019 -0.3599532 -0.28655115 0.09218209 -0.18945949
0.15292476 -0.25004986 -0.4308691 -0.19957122 -0.55967045 0.18257982 -0.32027984 0.33924255

fcs.0.bias f4 [16]
00000000: 83c5 8e3e fa6e 76be 8a8e c3bd 78d6 ddbe
00000010: cbaf cb3e 26f4 83be 3d03 94bd 72e1 d13c
00000020: 0f7d 9f3e d288 ccbd 88fa 943e 4ded 6c3e
00000030: 3c6d 4ebd 9282 b83e c17e f2be 34a4 a5be
0.27885064 -0.24065772 -0.095486715 -0.4332769 0.39782557 -0.25772208 -0.0722718 0.025620196
0.311501 -0.09987034 0.2909739 0.23137398 -0.050397143 0.36037117 -0.4736233 -0.3235184

fcs.1.weight f4 [16, 1]
00000000: 2748 ebbd 3d76 a7bd 0e68 c73e bd0f 353f
00000010: 9dc8 43bf 3958 043f 7ed0 753e 0e2b 543f
00000020: 1cee 033f afdc 42be 13cc e9bd a06e 26bf
00000030: 7420 4c3e f44e 443f c1de be3e 5ef6 523f
-0.11488371 -0.08176849 0.38946575 0.7072714 -0.76477987 0.5169712 0.24005315 0.82878196
0.515352 -0.19029497 -0.11415877 -0.6501255 0.19934255 0.7668297 0.37279323 0.82407176

fcs.1.bias f4 [16]
00000000: c6e3 d53e 5704 2c3e 43e2 46be 8180 66bf
00000010: d238 74be 0e41 643f 7b03 653f 3989 9fbe
00000020: 4d9e 593f 17df 623f bbe0 5abf ea55 7abf
00000030: a6c1 02bf 909e bfbd acb1 b93e ef93 cc3e
0.4177534 0.1679853 -0.1942225 -0.9003983 -0.238498 0.89161766 0.89458436 -0.3115938
0.8500717 0.8862166 -0.8549916 -0.97787344 -0.51076734 -0.09356415 0.36268365 0.39956614

fcs.2.weight f4 [16, 2]
00000000: 5824 f93e 708d 91be 5368 ea3e 7086 453e
00000010: 9553 fabe 20ac 0fbf 7ef0 8a3e 4e92 193f
00000020: 9b72 d6be 554e b53d b41b 2abf 4bf7 d33e
00000030: d816 263e f4a9 33be b57b c03e 752b aa3e
00000040: 9fb3 f73e be15 0b3e d133 2ebd 1e6b be3e
00000050: 988c 903e b95b 1bbf b105 8cbe 6b6e c63e
00000060: 22c8 c8be cb2c 1a3f 4f4c 1dbe db3d 3c3f
00000070: b681 eebe 893c e23e cee6 acbe 3bca 083f
0.4866054 -0.2842822 0.45782718 0.19289565 -0.48891893 -0.56122017 0.27136606 0.5998887
-0.41884312 0.08852831 -0.6644852 0.41399607 0.16219652 -0.175453 0.3759438 0.3323628
0.48379228 0.13582513 -0.042529885 0.371911 0.28232265 -0.6068683 -0.27348092 0.38756117
-0.3921519 0.602246 -0.1536114 0.73531884 -0.46583337 0.4418681 -0.3376984 0.5343358

fcs.2.bias f4 [16]
00000000: 9be1 d93e 2739 723e bc39 713e 3279 d43e
00000010: 7e7e 9bbe db0b 6ebe cb4c 113e 69a8 edbe
00000020: e997 d23d e764 9b3e fd8a 1dbf 7f43 62bc
00000030: 7668 6fbc 211d 0cbf 4a1a 053f 48c8 eeba
0.42554936 0.23654614 0.2355718 0.41498715 -0.30369943 -0.2324671 0.1418945 -0.4641755
0.10282881 0.3035042 -0.61540204 -0.013810038 -0.014612308 -0.5473195 0.5199324 -0.0018217647

fcs.3.weight f4 [16, 1]
00000000: 8049 7dbf e418 d2be 82a0 6d3e 8f99 4a3f
00000010: c89c 93be a770 6c3f 3e4c fcbe 22f6 50bf
00000020: 2a60 aebe 0809 36bf f174 c43e e789 3b3f
00000030: 6c83 6abf dc67 4dbf 1789 1a3f a2ae 94be
-0.9894028 -0.41034615 0.2320576 0.7914056 -0.28830552 0.92359394 -0.49276918 -0.8162557
-0.34057742 -0.7110753 0.3837047 0.732573 -0.91606784 -0.802366 0.6036543 -0.29039484

fcs.3.bias f4 [16]
00000000: 1b2f 6d3f 39ef 643f 8e23 1bbf 5e95 253f
00000010: 7585 83bf 2020 ee3e d199 16bf aa9d 91bb
00000020: e260 853f f517 3d3e 8d88 04bf ce7a 043f
00000030: 0686 51be 5906 683f 9635 49bf 1836 4fbe
0.9265 0.89427525 -0.6060113 0.6468104 -1.0275103 0.46508884 -0.58828455 -0.004443844
1.0420191 0.1846617 -0.5177086 0.51749885 -0.20461282 0.90634686 -0.7859739 -0.20235479

fcs.4.weight f4 [16, 4]
00000000: 0cf0 c0be 7a4c a4be ff5c aabd b7a0 b8be
00000010: 1890 c2be 88f2 0bbe b936 68be ab87 94be
00000020: abaf 883d c8a0 aebe 7582 933e 2c58 953e
00000030: 2ec8 023f 459a 4f3e b0dd dfbd 9564 f3bd
00000040: b4e3 45be 093c c93e 7a59 6f3e 5d51 a53e
00000050: 2d34 44bd bf5f a2be 16b3 e43d 3985 ce3e
00000060: 666e 14be d3be ab3e 3184 d03e 2fa2 713e
00000070: 6e6e 35be c5fd 0cbe 5650 b6bd 9277 f43a
00000080: 2f07 1ebe e159 09bf d027 8fbe 2234 d1bd
00000090: 6b43 a03e d37d 583e c4fc f5be 06da 92be
000000a0: c3f5 83be 91ad 063f 25f6 8a3d d1ec d33e
000000b0: 9232 aabe 1bf8 fe3e c9a9 ac3e 1e68 f5bc
000000c0: ec5d 9bbe 8375 0e3e 5ab9 4abe 10d9 1fbe
000000d0: bc3b 023e 71e8 b4be 9f8a 053e 852f ba3c
000000e0: 1e12 1c3d faea 8b3d 33ef 923d 1648 98be
000000f0: 324e 093e d340 0bbf a823 903e c8c3 abbe
-0.3768314 -0.32089597 -0.08318519 -0.36060116 -0.3800056 -0.13666737 -0.22677125 -0.29009756
0.06674131 -0.3410704 0.28810468 0.29168832 0.510867 0.20273693 -0.109309554 -0.11884419
-0.19325143 0.39303616 0.23373976 0.32288638 -0.04790132 -0.31713673 0.111669704 0.40336016
-0.14495239 0.33544025 0.40725854 0.23597024 -0.17717907 -0.1376868 -0.089020416 0.0018651357
-0.15432428 -0.5365277 -0.27960062 -0.10215022 0.31301436 0.21141748 -0.48044407 -0.28681964
-0.2577344 0.5260859 0.067852296 0.41391614 -0.33241707 0.49798664 0.33723286 -0.029956874
-0.30345094 0.13912015 -0.19797269 -0.15610147 0.127181 -0.3533359 0.13041161 0.022727737
0.038103215 0.068319276 0.0717453 -0.29742497 0.13408735 -0.5439579 0.28152204 -0.33547807

fcs.4.bias f4 [16]
00000000: 89e9 e03e 8fe0 813d f221 f93d 15f0 393e
00000010: 7f8e b43d 39e8 07be 0553 f1be e0cd aa3e
00000020: e046 ad3e 0bb9 9ebc 063e bd3d 571e a7bb
00000030: 2811 2cbe 8f8a a83e b25e 8abe 7085 f5be
0.43928173 0.06341659 0.12164678 0.1815799 0.088162415 -0.1327218 -0.4713365 0.33360195
0.33843136 -0.019375345 0.09240346 -0.0051000523 -0.1680342 0.32918212 -0.27025372 -0.47953367

lstm.weight_ih_l0 f4 [64, 16]
00000000: e203 e43c c4d9 bbbd 6da0 6ebe 56c4 06be
00000010: 2738 273c 00e1 e03d 2ed9 553e ae73 883e
00000020: 67c0 813e 14db 0e3e 0ccb 6bbd 64ba 61bd
00000030: 73d1 f3bd f080 c63d 7986 d3bd 41fa 92bc
00000040: be16 8d3e 452c 373e 3696 b83d 795b 563e
00000050: 9d3b 60be b139 eb3d 172d 9fbd a9a3 e43d
00000060: 92c1 603e 692f 4ebb a3d8 e93d 5c70 f43b
00000070: 9d3a 9abc 4b99 663e 1a6a 0f3e 0359 51bc
00000080: ac73 d63d 345d 99bb 6885 81bd 0a2f e7bd
00000090: f7e0 32be b01c cd3d 0a01 02be a057 9abd
000000a0: ebf2 003e 94dd 25be c79f a03d 19c1 9f3e
000000b0: 6717 163e 9b65 933e be49 cbbd 8a7a c4bb
000000c0: e672 b2bc f8de 72bd ba55 fbbd 15a1 5c3e
000000d0: 154e 97be 409c 15be 986c 9a3d b4d9 3d3e
000000e0: 4ef5 d1b9 08d0 ecbb 2d13 a9bd a5b6 663e
000000f0: 11fa 603e cdfa 5fbd 1547 8fbc 30cb 85be
00000100: 463f eebd 599f 8dbd 3e7d 1bbe 6b56 06be
00000110: 43d5 1a3e ccee 3f3e 6cda 3bbc 95f1 e5bd
00000120: 7284 973d e649 3e3e 8ea2 ebbd c5fd 343d
00000130: 2189 c43d ed14 5d3e a862 e03d 62f2 6bbd
00000140: d797 153e d2d5 af3c 6e45 dabc 0686 8cbe
00000150: ebdf 973e bca6 613d 3bf0 bc3d 4c20 143e
00000160: a228 99bc 243e 0cbe 1315 e5bd a4ee 8ebe
00000170: 4217 913e aea8 2e3e abbc ef3c 9141 e1bd
00000180: 059b cdbd 45b6 233e ba04 86be e568 a2bc
00000190: 53d1 7b3e 105b 93be 5442 7e3e faae 0dbe
000001a0: 4691 c33b 6329 733e b239 103e f41d 273e
000001b0: 4186 8c3e a131 36be a1df 7b3c 1dc5 3abe
000001c0: 6ac9 603e 0158 153e a5a2 ed3d 23f5 023e
000001d0: 39f2 cf3d faf8 8dbd edad 83be 5ed8 06be
000001e0: e271 913d 44d7 33be 0151 2c3e c6fd c2bd
000001f0: 9a50 10be 2bbc a13e a1fb 68be c507 26be
00000200: cc1a 763d c0bb 083e 8a06 16be b4bb 9e3d
00000210: 56f5 57be df10 563c ea3c 70be 8a3a 3abe
00000220: 6b6f 153e a51b 313e b952 2abe 1bcb 323d
00000230: aa49 42bc b368 473e f6bb f5bc 4483 4ebd
00000240: 295d ca3d e43b 4ebe 8301 b53d a41f 803e
00000250: 9e25 3b3e dd2c d3bd 00a1 0ebe b529 24be
00000260: 141e b43d a8de 29be dd32 1cbe 2933 42bd
00000270: d9ec 1f3e 6e97 863c 7bbe 8dbe 6809 37be
00000280: 52c0 0abe 97fd 153d 1e7c 7fbd 37de e8bd
00000290: ec62 85be c1aa 963a 88aa 40bd e87e 253e
000002a0: 35e6 233e 0074 29be fa69 97be f069 dd3d
000002b0: c3b3 adbd 1972 5a3e 66cf 76be 16cc 94bd
000002c0: 3ba7 e4bd 867e 5dbd 667c 5abe 0891 b3bd
000002d0: 5b16 3ebd c690 343e 2b30 383e a6a2 843e
000002e0: 0c50 053e 61c4 843d a806 473e 2f55 20be
000002f0: d216 2bbe 2d87 89bd 52d5 ef3d c4d7 393e
00000300: 39b0 f1bd 2d6a 40be f6ff 63be 304d 073e
00000310: 2cf5 b6bd a440 443e 8ba3 debd 0935 653e
00000320: 854c 223e b562 1b3e 6cf4 183e b065 46be
00000330: b22b 8a3c e660 2bbe 4b65 b2bd 4e91 023e
00000340: 61c8 b3bd 5629 013e 70ad 43bd 65bd 32be
00000350: 678c 07be 494e 96be 653f 133e d713 773d
00000360: fe61 8e3e 768b e33d 2787 833c 9dd9 70bd
00000370: b6b0 373e 183b a43c 25a0 963d 6a0c 3ebd
00000380: c7d8 593e 5bf8 e63d 3727 953d e416 52bb
00000390: d71a 973d 3956 863e e676 0a3d 6ced 1f3e
000003a0: a3c5 2bbe 392b e63c d228 90be c014 90bb
000003b0: 4466 803d 6420 033e 6ce9 23be 763d 073e
000003c0: d1c6 64bd 00f2 d2bb e91d 073e 963c 43be
000003d0: 76b0 5abb 6e4f 16be 43bd 423d b222 51be
000003e0: c1dc 2bbe 8bfc edbd 1e35 0f3e c7e2 3c3e
000003f0: 3e08 0e3e 653e 3c3c 17da 373e 085e 10be
0.027833883 -0.09172395 -0.23303385 -0.13160834 0.010206259 0.10980415 0.20883629 0.26650757
0.25342104 0.13950759 -0.057566687 -0.055109397 -0.11905184 0.096925616 -0.10328383 -0.017941596
0.27556413 0.17887981 0.090130255 0.20933332 -0.2189774 0.11485613 -0.07772272 0.11164028
0.21948841 -0.0031461364 0.11418273 0.0074596833 -0.018826777 0.22519414 0.14005318 -0.01277757
0.104712814 -0.0046803 -0.06324273 -0.11288269 -0.1746863 0.10015237 -0.12695709 -0.075362444
0.12592666 -0.16197807 0.07842975 0.3120201 0.14657365 0.28788456 -0.099261746 -0.005996053
-0.021783303 -0.05929467 -0.122722104 0.21545823 -0.2955176 -0.14610386 0.07540244 0.18540078
-0.00040046353 -0.0072269477 -0.082556106 0.22530611 0.21970393 -0.05468254 -0.01748995 -0.26131582
-0.11633162 -0.06915159 -0.15184495 -0.13118903 0.15120415 0.18743438 -0.01146565 -0.11227719
0.07398309 0.18582878 -0.11505614 0.044187326 0.09596468 0.21590014 0.10956317 -0.0576042
0.14608704 0.021464262 -0.026644435 -0.27446002 0.29663023 0.05509065 0.09225508 0.14465445
-0.018696133 -0.1369558 -0.1118566 -0.27916443 0.28338057 0.17056534 0.029264769 -0.10998834
-0.10039333 0.15987499 -0.2617548 -0.019825408 0.2459157 -0.28780413 0.2482999 -0.1383628
0.0059682457 0.23746257 0.14084509 0.1632002 0.27446178 -0.1779237 0.0153731415 -0.18239255
0.21951833 0.14584352 0.116032876 0.12788825 0.10153622 -0.06932254 -0.25718632 -0.13168475
0.071017995 -0.17562586 0.16827776 -0.0952106 -0.14093247 0.31588873 -0.22752239 -0.16213901
0.06008415 0.13352871 -0.14650932 0.07750645 -0.21089682 0.013065546 -0.23460737 -0.18186393
0.14593284 0.17295702 -0.16633119 0.043650728 -0.011858383 0.19473533 -0.029996853 -0.050418153
0.0988105 -0.20140034 0.08838179 0.2502414 0.18276069 -0.10311291 -0.13928604 -0.16031535
0.087947994 -0.16588843 -0.15253778 -0.04741207 0.15617694 0.01642963 -0.27684388 -0.17874682
-0.13549927 0.036618795 -0.062374227 -0.11370509 -0.26052034 0.001149498 -0.04703763 0.16161692
0.16005786 -0.16548157 -0.2957304 0.108112216 -0.084815525 0.21332587 -0.24102554 -0.07265489
-0.11164709 -0.05407574 -0.21336517 -0.08767897 -0.04640804 0.17633352 0.17987125 0.2590534
0.13018817 0.06482769 0.19436133 -0.15657495 -0.16707924 -0.06715236 0.117106095 0.18148714
-0.1180119 -0.18790503 -0.2226561 0.13213038 -0.089334816 0.19165283 -0.10871037 0.22383513
0.15849502 0.15174372 0.1493699 -0.19374728 0.016866539 -0.16736183 -0.08710726 0.12750742
-0.087784536 0.12613425 -0.047772825 -0.17455061 -0.13237153 -0.29356602 0.14379652 0.060321655
0.27809137 0.111105844 0.016055657 -0.058801282 0.17938504 0.02004771 0.07354764 -0.046398558
0.212741 0.11277839 0.0728287 -0.00320571 0.07378166 0.26237658 0.033804797 0.15617913
-0.16774611 0.028096782 -0.28156143 -0.004397005 0.062695056 0.12805325 -0.16007012 0.13207039
-0.05585367 -0.00643754 0.13195004 -0.1906608 -0.003336934 -0.14678738 0.047543775 -0.20423391
-0.1678343 -0.116204344 0.13985106 0.18445884 0.13870332 0.011489485 0.17954288 -0.1409837

lstm.weight_hh_l0 f4 [64, 16]
00000000: 6182 86be b8ab 063e eae8 02be c1cc 043b
00000010: 8bee 55be ac1d bfbd b8ae 29bb 38d7 a03d
00000020: dc84 7dbe f6a0 4abd b196 c63c 049e 02be
00000030: c624 723d f323 cc3d af1f f8bc 2c5c 12bd
00000040: 66da ee3a c6a1 12be 855d f2bc 77e2 643d
00000050: d7b8 1abd 4677 bb3d 5921 153d 78a9 933e
00000060: 52f7 953d 1830 14be 430b 1cbe 5165 973d
00000070: e043 18be 3bbf 05be e46e 1a3b e0bf 0dbd
00000080: 2dc5 713d 64be 55bd c4a5 8c3e 0b29 49be
00000090: 9c06 43be 5762 d03d f561 9d3c 0aa1 083e
000000a0: 4a20 eabd f2d4 75be 9481 e83c f20c ea3d
000000b0: e7a7 4a3e 5ddd 1f3e 3376 4bbd 1ce6 793e
000000c0: f2b6 ac3a 3465 983d 174f b6bc 85e7 b5bd
000000d0: 125b 743a 23db a3bd 94b5 6c3e 8706 9fbd
000000e0: f68c 4fbe 030a 9f3c 0054 00be 2f70 ca3d
000000f0: 141d 883e ab98 c03b 439a dbbd cdc3 88bd
00000100: a30e 6a3d 1676 15be 1c3a 79bd fc09 50be
00000110: 4dd1 90be 615c 7cbe 72a5 c7bd 6a4d 1e3e
00000120: dad7 aa3d 2c2d 46be b95f 53be 6916 333e
00000130: 6bb9 f43d 7aae 393d fbee d9bc b3a6 1ebe
00000140: 2155 52be 8f81 483e dbe9 9bbe ab51 8ebe
00000150: adba 8a3c d724 efbd e273 f33d 77c3 7c3d
00000160: e98b bbbd 41c7 a9bd c89c 44be b9ac 88be
00000170: 2908 183d 3476 163e 9a3a 84bd 7739 973d
00000180: 480a 48be a919 963d 66ba 6fbe 5d1a a9bd
00000190: bc52 cfbb e64b 28be cee1 993e 38d3 b03b
000001a0: 06a3 0f3e 68a1 8b3e 94fc a63d f004 86bd
000001b0: 44a0 333e 47b8 353e 7e1d 9bbe 521e ebbd
000001c0: a185 2c3d d55d a33c 3ed2 8dbe a8a7 4bbe
000001d0: a419 59be f362 bd3c d207 753e 8faf bfbd
000001e0: 2e0f 4fbe 8c9a 883d 2711 f53d 470a 2cbe
000001f0: a60a 223e 8d4e debd 592e bb3d f3ca fd3d
00000200: 006c 763d 5496 a23c 902b 563e be29 aebd
00000210: f469 94be 3a01 f23d ff07 983e fb36 583d
00000220: cd8e 393e 537d 133e 73c0 c53d 75e3 d63d
00000230: 2ae3 0dbe bc37 25bd 7fff 0dbe bfe2 9d3c
00000240: 31b0 4fbe f2b6 3c3d 401a 853d cb31 37bd
00000250: e479 13be f1f5 52be 48ea bb3d f040 1bbe
00000260: d1cd c4bd 9fa7 2bbd 645a 143e 0f56 81be
00000270: 50f1 9a3d db1e a3bd 6a24 d3bc 2ecf 0fbe
00000280: d778 8abe 09d1 d73d b4db 943d ada1 1b3e
00000290: 32b6 223e fafb e03d 7d5f 2a3e bac1 613e
000002a0: 5b2b 163d b6df 9bbe 9189 7a3e 8993 18bd
000002b0: c507 5b3b b4f2 fcbd 02e2 3f3e 38c2 583e
000002c0: d913 c7bd 935a 0abe 5a7e b6bd 72fa 993d
000002d0: 478a 6bbe a0f0 75be 9479 9cbd ffcb f13b
000002e0: 11ce f13d 5020 9dbc 912c 253d 0d65 1abe
000002f0: 60f3 f0bd cf93 5bbe a90c 6fbe c2b8 34be
00000300: ce3b 02be 5ed5 c7bd 65ec 33be 732d e43d
00000310: 780e f63c f88a 8d3c 4c5c ac3d 64c4 34be
00000320: 0c31 00be 6bf0 69bd 3ac5 50be 3543 1f3e
00000330: b97a 5ebe 0dec 4a3e a286 713e d665 c53d
00000340: b0ec 34be 4c90 ec3d 6d19 febd 2fd9 39bd
00000350: f472 d53d 3326 763e b97e 5a3d 7b46 adbc
00000360: 3885 81bd b8a1 71be b1d0 ccbc 4d5e 0dbe
00000370: a77c 45bc 2ba2 72bc 4971 d93d 8206 dbbd
00000380: a879 dd3d 65ca 10bd a930 e2bc dcfe 94be
00000390: 111e 153e 5fa3 33bd f5c7 22be 14e0 2cbd
000003a0: 82a0 2e3d 130c c2bd fd3a 4e3e bf07 a53d
000003b0: 3c66 d03c 17e9 473e d5ed fa3d 5282 b6bd
000003c0: 34b7 acbd d9f5 4d3c e598 c5bc a338 aa3d
000003d0: 66f6 9cbe d1e0 49be e0ae 333e 1d09 92be
000003e0: 24c0 20be b162 4abe 622f 883d 2901 823d
000003f0: 40f7 0cbe 3d2b 173e ef02 41be 0c68 8bbd
-0.26271346 0.13151443 -0.12784162 0.0020263644 -0.20891778 -0.09331831 -0.0025891494 0.0785355
-0.24757713 -0.04946991 0.024241777 -0.1275559 0.0591171 0.09967794 -0.030288545 -0.035732433
0.0018223047 -0.14319524 -0.02958561 0.055880036 -0.037773933 0.09153609 0.036408756 0.28840232
0.07322563 -0.14471471 -0.15238671 0.073923714 -0.14869642 -0.1306123 0.002356463 -0.034606814
0.059025932 -0.052183524 0.2747022 -0.19644563 -0.1904549 0.10175007 0.019211749 0.13342682
-0.1143194 -0.24007013 0.0283821 0.1142825 0.19790612 0.15611787 -0.04967327 0.24404186
0.001317708 0.07441178 -0.02225451 -0.088820495 0.0009321432 -0.080007814 0.23116142 -0.07764917
-0.20268616 0.019413954 -0.12532043 0.098846786 0.26584685 0.0058775744 -0.107227825 -0.06677971
0.057142865 -0.14595827 -0.060846433 -0.20316309 -0.28284684 -0.24644615 -0.09748353 0.15459219
0.08341952 -0.19353169 -0.20641984 0.17489018 0.11949428 0.04533241 -0.026603213 -0.15493278
-0.20540287 0.19580673 -0.30451855 -0.27796683 0.016934717 -0.116769485 0.11887337 0.061709847
-0.09157545 -0.08289958 -0.19200432 -0.26694277 0.037117157 0.14693528 -0.0645649 0.073840074
-0.19535172 0.07329113 -0.23410949 -0.082569815 -0.0063270014 -0.16435203 0.30055088 0.005396273
0.14027032 0.2727158 0.08153644 -0.065439105 0.17541605 0.17746077 -0.30295938 -0.114803925
0.042119626 0.019942204 -0.27699465 -0.19888175 -0.21201187 0.023118472 0.23928764 -0.09359657
-0.20220634 0.066701025 0.11966162 -0.16800795 0.15824375 -0.10854826 0.091396995 0.12392225
0.06016159 0.019847073 0.20915055 -0.085040554 -0.28987086 0.1181664 0.296936 0.05278681
0.1812088 0.14403276 0.096558474 0.10492603 -0.13856187 -0.040336356 -0.13866995 0.01927316
-0.20282055 0.046072908 0.064991474 -0.04472522 -0.14401966 -0.20601632 0.09175545 -0.1516149
-0.09609569 -0.041907903 0.14487606 -0.2526097 0.07565558 -0.079648696 -0.0257742 -0.14043877
-0.27045318 0.10537917 0.072684675 0.15198393 0.15889814 0.10985561 0.16637988 0.22046557
0.03666244 -0.30444115 0.2446654 -0.037250075 0.003342138 -0.123509794 0.18738559 0.21167839
-0.097205825 -0.13511114 -0.089108184 0.07518472 -0.23001967 -0.24017572 -0.07640377 0.0073790546
0.11806882 -0.019180447 0.040325705 -0.1507761 -0.1176517 -0.21443103 -0.23344673 -0.17648605
-0.12718126 -0.097574934 -0.17570646 0.11141481 0.030036196 0.01727818 0.08416042 -0.17653042
-0.1251871 -0.057114046 -0.20387736 0.15552981 -0.21726502 0.19816609 0.23586515 0.09638564
-0.17668414 0.1155096 -0.12407193 -0.045373138 0.10422316 0.2403801 0.05334351 -0.021151772
-0.063242376 -0.23596847 -0.025001856 -0.13805504 -0.012053645 -0.014809172 0.106173106 -0.10694601
0.1081422 -0.03534927 -0.027611094 -0.29100692 0.1456225 -0.043856975 -0.1589659 -0.042205885
0.04263354 -0.09474959 0.2013969 0.08058118 0.025439374 0.1952251 0.12252394 -0.089115754
-0.08433381 0.012570822 -0.024120757 0.08311584 -0.30656737 -0.19714667 0.17547178 -0.28522578
-0.15698296 -0.1976421 0.066496626 0.063478775 -0.13766193 0.14762588 -0.18848775 -0.06806955

lstm.bias_ih_l0 f4 [64]
00000000: a73e 29be a937 bcbc 4617 683e 28be 03be
00000010: 269e 9b3e 221c 523d 8605 133e e5a3 f13d
00000020: 28aa a03d 30d9 563e c7f5 14be 1c91 fd3d
00000030: dd6b e4bd b62b 943e 9f79 8a3e 9f97 17bd
00000040: 58fd 553e 7a75 d3ba a612 b53d 812a 52bc
00000050: cd31 dbbd 083f 0e3e c77d 423e 6ad6 983e
00000060: 576c c63d 1320 27bd ba80 0c3e fa75 753d
00000070: a9a8 4b3e 3a54 213e 670a 833e 04a5 3d3d
00000080: 76e1 29be 5b23 fabd 0de1 323e 5c91 8d3e
00000090: fed6 2d3d 40a7 4ebe e4c7 1b3e 815d 1d3e
000000a0: 25b4 67be 4777 8c3c 7099 853e 2ab1 4abe
000000b0: 1f9e 813c 2bb7 d13d fcae f4bd c830 4c3e
000000c0: 8ede 943e 06c5 a03e c9a8 25be 28c9 a63d
000000d0: 82f5 8d3e 4856 783e 657a 943b f0db 793e
000000e0: 7547 793e 8c2d 543d e2a7 7a3e b7f5 533e
000000f0: 088b 0abd 4c28 43bd 07e0 8dbd bee6 11be
-0.16527806 -0.02297576 0.22665128 -0.12865508 0.30394095 0.05129636 0.14357576 0.117988385
0.07844955 0.20981288 -0.14546882 0.12381193 -0.11153386 0.289396 0.27045915 -0.03700983
0.20897424 -0.0016133033 0.088414475 -0.0128275165 -0.10702858 0.13891232 0.18993293 0.29851085
0.09688633 -0.040802073 0.1372098 0.059926964 0.19888557 0.15754786 0.25593874 0.04629995
-0.16589913 -0.12213775 0.17468663 0.27649963 0.04244136 -0.20180988 0.15212971 0.153677
-0.22627313 0.01714672 0.26093626 -0.19794145 0.015822468 0.10240015 -0.11947438 0.19940484
0.29076046 0.31400317 -0.16177668 0.08143836 0.2772637 0.24251664 0.004531192 0.24400306
0.24343665 0.05180125 0.24478105 0.20699202 -0.033823997 -0.047645852 -0.069274954 -0.14248177

lstm.bias_hh_l0 f4 [64]
00000000: 1824 a5bd a445 0a3e 78d5 143e 73df c0bb
00000010: 744b 4b3d 2eda 4c3e 89bc d23d bcf4 c1bd
00000020: ac8a 863e 04a5 613e 58b1 cc3d 9d73 413e
00000030: b9be 56be 2533 4c3e be92 fe3d 8a15 203d
00000040: fae8 27bc 8fb1 783e 48b9 293c 8877 a7bd
00000050: b053 1b3e 5a09 9f3d ed28 b0bc 53ef 7f3e
00000060: 957c 883e 8a9b 743d 6cf9 f3bc eadd b6bd
00000070: e1a8 18be a9a6 3b3e 5e4c 4c3e c17e fdbd
00000080: 34fc 253e cb2e 443d 6dc5 74bd ba77 dcbc
00000090: 22bc 86be 8889 73be 9270 1c3e 54c7 133c
000000a0: 9388 23bd 0140 53be f151 d2bc 4f79 05be
000000b0: 1d4c 9e3c f7a4 54be 94f8 abbb 07e9 3ebe
000000c0: 74c3 dfbd 27be 853d 09d1 103d e769 34bb
000000d0: 98d3 5f3e abff 423d 1849 f73d ee03 393e
000000e0: 6850 913d d083 1dbe 5003 a1bc 0786 613e
000000f0: bd4a 163e 4fb6 123e 5466 913e 7777 91bd
-0.08063525 0.13503128 0.14534557 -0.005886012 0.049632505 0.20005104 0.102898665 -0.094705075
0.26277673 0.22035605 0.09994763 0.18891759 -0.20971192 0.19941385 0.124303326 0.03908304
-0.010248417 0.24286483 0.010359116 -0.08177096 0.15168643 0.077654555 -0.02150389 0.24993639
0.2665755 0.059718646 -0.02978202 -0.089290455 -0.14908172 0.18325295 0.19951007 -0.12377692
0.16209489 0.047896188 -0.059758592 -0.026912559 -0.2631541 -0.23782933 0.15277317 0.0090196915
-0.03992517 -0.20629884 -0.025673838 -0.13034557 0.019323403 -0.20766054 -0.0052481387 -0.1864358
-0.109259516 0.06530409 0.0353556 -0.0027528943 0.2185806 0.047607105 0.120744884 0.18067905
0.070954144 -0.15382314 -0.0196549 0.22023784 0.14676948 0.14327358 0.28398383 -0.07102864

lstm.weight_ih_l1 f4 [64, 16]
00000000: 21e5 a0bd 4eef d23c 6394 ebbd d444 8b3e
00000010: 84ba 87be 19a1 313c 44e1 823e 4811 a2bd
00000020: 5b1e 353e cf69 8bbe 1681 ea3d 0aaa 52be
00000030: 1753 033d 5a77 8e3d 17d0 ac3d dadd d73b
00000040: d6f9 f3bd 5988 3bbe 4c0e c7bc 3e3f 9b3e
00000050: 6265 4dbe aaca 15be 14a8 dc3d 8c80 413e
00000060: 14cb 273d 9963 cf3d 51ba d53d 3dc2 fcbd
00000070: 5d7f 86be 8577 a0be 5d5a 41be 05cf 3d3e
00000080: 5b43 373e 5735 4c3e 6686 463e f192 91bc
00000090: 3c7f 073e fc57 423d aef5 0cbe a9dd 71bd
000000a0: 83c8 93be e1fc 203e add3 8d3d e14d 8c3e
000000b0: 25f8 13bd 0ed2 203e a3cf a33d 967a 2fbd
000000c0: 1a51 99bd 34d0 de3d 2a84 863c c991 043e
000000d0: 6529 89bc fc9e 23be 7a9d 56bd 3043 44be
000000e0: 7fb9 ca3d eca7 743e 288a 41be e8e8 2dbe
000000f0: 1fe4 423e efb9 fdbd 33bc 97be bfad 84bc
00000100: 9566 c6bd a72c 163e 4048 4f3d d602 62be
00000110: e9e4 f4bd 23d7 7cbe 5e2f 3b3e 5231 c13b
00000120: 8d36 e13d abe9 3bbe a378 35be 61c7 05be
00000130: c9b2 22be 536a 8ebe c624 81be 5fff e43d
00000140: c391 0bbe 6fa5 e3bd fcab 0d3e 874d c13b
00000150: e8b5 343d b272 72be 050f 913e 4f92 a2bd
00000160: b321 3bbe 2b80 1f3e 64e9 89be 90d4 b1bd
00000170: 4642 483e 3b06 123d 1dc6 25be c32f aabd
00000180: 1ca9 d8bd 153d 993d 9a29 e93d 6bc1 833d
00000190: efab 183e b75f 70be 72cf 02be 0a8c 71bd
000001a0: 0cc8 34be 69c8 6fbe 6a3d 393e a64c 743e
000001b0: e91f 863e c22e 5dbe 5c19 c8bd 95ab 83be
000001c0: 3ad1 23be dc0d 143e fbb7 623d 2ebc 983c
000001d0: 065e a2be d0d9 2c3d 5fab 713e 39be 28be
000001e0: 10f8 113e 86e5 f53d 8f25 80be 3362 f9bd
000001f0: 1de8 5f3d 6320 99be 55ee 78be 1d7e f53c
00000200: 4c61 0fbe 716f a2bd 0e87 49bd b769 ce3d
00000210: eb69 153e 3a13 ff3d 4cfd 24be 49e2 f1bd
00000220: 34fd 703d 0ec4 a83d 7984 f6bd 7b7a 503e
00000230: 1e43 f23c 7c82 1dbd 8577 c13d b6a3 ec3d
00000240: 7eac 80be f39c 5ebe c7ed dd3d a96a a43d
00000250: 8283 0abe 3085 1c3e 0944 183d fadb 4dbe
00000260: e397 b9bd 752f 49be 2c4c 773c d856 2ebe
00000270: 1931 8d3e 08a4 82be 63df c83d 31ad 80be
00000280: 5028 d9bd 79a3 53be 64bd 4a3e a80d a03d
00000290: 407e 9cbe 2d13 90be 9d39 cf3d cba7 99bd
000002a0: 4ccd 88bd 4105 2c3d eaf0 f4bd 8ebc 8f3e
000002b0: a8c9 993d 3205 3abe bf04 923c fbbe 84be
000002c0: aaba 3ebe 8070 5a3c b719 91bd f0f5 98be
000002d0: 7b04 5f3d cb0c 00bb a65e 0c3e f0ef de3c
000002e0: 0364 9ebe decb 13be a63c 36be acac 9b3e
000002f0: f206 88bd 3a53 69be 7010 19be 6d80 eabc
00000300: e0cb 5b3d 1ee8 023e f8e5 693e a955 abbc
00000310: 6285 243e 8aaa ae3d a9c3 353e 1ec1 82be
00000320: a122 00bd 7fa5 d4bd 766c 98be a23a 8dbd
00000330: e009 603e 216c 393d d578 383e d65f f03d
00000340: dce4 90bd df88 273e 9e3e 993d 010d c7bd
00000350: 0292 36be bbc6 c03d 274f 383e 3bd8 ef3d
00000360: 960d e1bd 2b3c 89be d8a0 08bc b764 bf3d
00000370: 032b 06be 8ab5 c6bb 1ee1 c6bd 30db 1e3e
00000380: a833 493c e2b0 3fbe 2bb6 853e 6061 1bbc
00000390: 2238 88bd 23a4 ae3d 5129 8c3e 3dc9 fe3d
000003a0: e589 42bd 99ba 2e3e 5af6 1abe a6f9 883e
000003b0: ca8e b3bd 72a8 26bd 5a29 2a3e ac6e 163d
000003c0: eb5c a6bd cd17 0f3e 44cd 103e 8f82 56be
000003d0: 3da7 8cbd 7a26 6abe 5ccb 07bd 7bbc 2a3b
000003e0: b1fb 08be a533 14be ed8d 3a3e a99d 80bd
000003f0: 3f88 81be fd6b 293c 6b44 8fbe fad5 36be
-0.07856203 0.025748875 -0.11502912 0.2720095 -0.26509488 0.010841631 0.2556249 -0.079134524
0.17687361 -0.27229163 0.114504024 -0.20572677 0.032061663 0.06956358 0.084381275 0.006587726
-0.11912887 -0.18313731 -0.02429881 0.30321687 -0.20058206 -0.14628091 0.10774246 0.18896693
0.040965155 0.101264186 0.10435928 -0.123417355 -0.26269045 -0.31341186 -0.18882127 0.18536003
0.17896788 0.19942223 0.19387206 -0.017770262 0.1323213 0.04744719 -0.13765594 -0.059049282
-0.28863916 0.15721466 0.069251396 0.27403167 -0.03612532 0.1570513 0.07998588 -0.042841516
-0.07486172 0.10879555 0.016420443 0.12946238 -0.016743371 -0.15978616 -0.052396275 -0.19166255
0.09898662 0.23892182 -0.18900359 -0.16983378 0.19032334 -0.1238898 -0.29635772 -0.01619613
-0.09687535 0.14665471 0.050606012 -0.22071394 -0.11957724 -0.24691443 0.18279788 0.005895772
0.10996733 -0.18350856 -0.177218 -0.13064338 -0.15888514 -0.27815494 -0.25223368 0.11181521
-0.13629822 -0.11115538 0.13835138 0.0058991346 0.04411879 -0.23676565 0.28331771 -0.079380624
-0.18274574 0.15576236 -0.26935875 -0.08683121 0.19556531 0.035650473 -0.16188855 -0.08309891
-0.1057913 0.074823536 0.11384888 0.06433376 0.14909337 -0.23474012 -0.12774447 -0.058971442
-0.17654437 -0.23416294 0.18089834 0.23857364 0.2619622 -0.21599868 -0.09770462 -0.25716844
-0.15997782 0.14458412 0.05535124 0.018644419 -0.3171236 0.04219991 0.23600529 -0.16478814
0.14254785 0.12006669 -0.25028655 -0.12176933 0.05466472 -0.29907522 -0.24309666 0.029967362
-0.1400196 -0.07931412 -0.049201064 0.10078757 0.14591186 0.12454839 -0.1611225 -0.118107386
0.058835223 0.082405195 -0.12036986 0.20359223 0.02957302 -0.038454518 0.09446625 0.11554663
-0.251316 -0.21739559 0.10836368 0.08028156 -0.13526729 0.15285182 0.03717426 -0.20103446
-0.09062173 -0.1964701 0.015093844 -0.17025316 0.2757652 -0.2551577 0.09808233 -0.25132135
-0.10603392 -0.20667829 0.1979881 0.07815105 -0.3056507 -0.2813963 0.10118411 -0.07502707
-0.06679782 0.041997198 -0.11960013 0.28073543 0.07509166 -0.18166044 0.017824529 -0.25926957
-0.18625894 0.013332486 -0.07084983 -0.29875135 0.054447632 -0.0019538875 0.1370798 0.02721402
-0.30935678 -0.14433238 -0.17796573 0.30405176 -0.0664195 -0.22785655 -0.14947677 -0.028625691
0.053661227 0.12783858 0.22841632 -0.02091487 0.16066507 0.085286215 0.1775042 -0.25537962
-0.031283025 -0.103831284 -0.2977025 -0.06895949 0.21878767 0.045269135 0.18014844 0.11737029
-0.070749015 0.16360806 0.074826464 -0.09719277 -0.17829135 0.09412905 0.17998944 0.117111646
-0.109889194 -0.26803717 -0.008339129 0.09345382 -0.13102345 -0.0060641216 -0.097109064 0.15513301
0.012280382 -0.18719819 0.26115546 -0.009483665 -0.066513315 0.085274 0.27375272 0.12440727
-0.047494788 0.17063369 -0.15133038 0.26752967 -0.08767469 -0.040687986 0.16617337 0.03672664
-0.081231914 0.13973923 0.14140803 -0.20948242 -0.06867836 -0.2286624 -0.033152923 0.0026052285
-0.13377263 -0.14472826 0.18218203 -0.06280071 -0.2529926 0.010340688 -0.27981886 -0.17855063

lstm.weight_hh_l1 f4 [64, 16]
00000000: 60ce 8d3e faec 6dbd ded3 2abe e187 793b
00000010: b67c 393e 3c18 ca3b 61b9 8fbe 350a 5ebd
00000020: 4558 b83d 06a2 61bd 9b2c 5a3e 46e2 f33d
00000030: 2d60 503d 64ca 023e a642 243c cc42 90be
00000040: 38ee 1dbe 0d51 85be 01ec c3bd 5d14 6fbe
00000050: a765 873d efa6 ab3d cd36 053e bd69 773d
00000060: ec0e acbb 6167 2f3d c7f9 b5bc f229 a0bd
00000070: 618a 49be 715c 4cbe 7cce b43d d3f6 3dbe
00000080: 12f1 e13d a327 993c 5bb7 303e 55bc a4bd
00000090: 4434 2b3d e355 663e 8200 57bc 0d52 283e
000000a0: 7893 3cbe acc2 68be 8c80 793e cf23 673e
000000b0: 177f e1bd 032b b93d a8f4 26be 47e3 c03c
000000c0: cbe1 7ebe ee94 c33d c207 70be 063b 02be
000000d0: 9a24 9c3e 245b bdbc 0bd3 51be f95c 953e
000000e0: 9ba9 3ebe 537e 72bc 56f6 513e 8e21 043e
000000f0: 4628 7abe dbfa 913e 622b 353e 53ee b6bd
00000100: e862 e7bd 6225 03be 3aec 7a3d 821b bb3c
00000110: 15f8 c93d 18c3 6b3e 649d 383e 9b6d fe3d
00000120: 43b7 f93c 3cbe 8f3d 0362 f63d 0d4c af3d
00000130: 69dc 1f3e fc1e 753e 6eb4 623e 5f02 ebbc
00000140: ebae b4bd 23c2 3bbe 80ca 61be 4b98 b0bd
00000150: 74a7 523e 6e8d c73d e5f6 17be e344 e93c
00000160: 72c4 7dbe 0f67 65be ff51 b43d eacd adbd
00000170: 6d8e 0bbd 6a38 873e 44c2 ff3d 4ffb 763e
00000180: 2e29 d3bd 5bc2 1abd f09f 92be 8bc6 78bd
00000190: 4c7d f2bd fe59 9a3e 873f 8fbe 25d5 1c3e
000001a0: c070 58be acb5 3d3b 792d 8e3d 7131 0b3d
000001b0: aa11 22be 9b3b 663e 3ce9 b13c 90d3 173d
000001c0: b26e dabd d6d6 6ebe 0126 99bd ab1a 1c3e
000001d0: 3861 a03e dc8a 51bd cade 18bd 87df dc3d
000001e0: 5abc 1e3e df1e 1fbd 735d a73d 791e f5bb
000001f0: 3157 b7bc d330 3ebe d207 47be 05c3 223d
00000200: bf05 fdbd dd05 6cbe 132e 0cbd 76cd 8e3d
00000210: 7edf 4b3e 9208 a3bc 98ce a7bd 5ebb 993e
00000220: 0be2 e8bb ce68 c53d 2b1a 0fbd 439c 21be
00000230: bee6 43be 8ef2 a53d 9eea a83b 2e95 98bd
00000240: e294 693e 4626 93be de1f 913c 1ede c83c
00000250: dc16 d73b 9732 363e 0d02 8cbd 77bf 9cbd
00000260: 69cc 51be 07d7 3ebe a498 31be 7e53 663e
00000270: 3751 2a3e 8161 78bd c401 ac3d 6f10 1e3e
00000280: 2746 bd3d b5f5 3dbe 8a06 14be df7d 2f3e
00000290: 1a7d 603e 0a59 9c3e c474 d53d 565f 643d
000002a0: 300c db3d a9c6 a5bd 835c 963d eed3 16bd
000002b0: 8deb 063e 97ad 873c 42aa dc3d 8543 07be
000002c0: 9652 003e 514b 37be dea0 63bd c762 bebd
000002d0: e620 293e 6514 a43d 23e4 dabc c88d babd
000002e0: df30 82be ef97 913c 5103 f6bc 5ed7 17be
000002f0: bcbf 33be 2c00 39be b089 f83d 9f89 9e3d
00000300: 98dc 893e 82b9 3abe 6b4b 07be 5445 403c
00000310: 5084 71bc 3deb 773e 770d 1fbc 6136 373d
00000320: 439c 11be dca2 d23d 7d0f 88bd 9fd4 163e
00000330: 6c50 de3d 6d00 1abe d5b9 30be 4bed c3bd
00000340: ee47 293e f740 54be 3438 1c3c 5a76 13bd
00000350: b95b 023e 2456 5fbd 57c3 80bd f3a4 7d3e
00000360: 9744 7a3d 98c1 e7bc 77c1 fdbd b81b 423e
00000370: 028f 31be 9a86 783e 7f10 363e 0f21 293c
00000380: ccd8 a83d 19af 74bd d23e 9b3d 0ea4 6abd
00000390: 39bf 863d 30d1 0f3e fa0b 4f3e 0cdd 5fbd
000003a0: 9261 473e 5607 cfbd cf5f 973e 30bd e03d
000003b0: 0529 48bd 93c4 02bd cd52 d1bd efdd 52be
000003c0: 232f debd 0337 4fbd a530 403e 62f3 e13d
000003d0: 5370 843d cc4f 5cbe 54fb 163e 59ec 4c3e
000003e0: d088 0cbe dcd5 993d 57be 38be 5918 cfbd
000003f0: 0ada bfbd 02bb 50be 0abf 5b3c b453 d73c
0.27696514 -0.058087327 -0.16682383 0.0038075375 0.1811398 0.0061674397 -0.2807112 -0.054208953
0.09001211 -0.05508616 0.21306078 0.119083926 0.05087297 0.12772518 0.010025656 -0.28175962
-0.15422904 -0.260384 -0.095664985 -0.23347612 0.066111855 0.083814494 0.13009186 0.060403574
-0.0052508023 0.0428232 -0.02221383 -0.078205004 -0.19681694 -0.19957139 0.08828446 -0.18551187
0.11032309 0.018695658 0.17257445 -0.08043734 0.04179789 0.224937 -0.01312268 0.1643755
-0.1841563 -0.22730511 0.24365443 0.22572254 -0.110105686 0.09041407 -0.16304266 0.023545874
-0.2489082 0.095498905 -0.2344046 -0.12717828 0.30496675 -0.023114748 -0.20490663 0.29172495
-0.18619387 -0.014800626 0.20504126 0.12903425 -0.24429426 0.285117 0.1769233 -0.089321755
-0.11298162 -0.12807229 0.06126044 0.022840265 0.09861771 0.23023641 0.1802879 0.12423249
0.030482894 0.07018706 0.12030413 0.085594274 0.15611424 0.23937601 0.22139141 -0.028687654
-0.088224255 -0.18335776 -0.22049904 -0.086227976 0.20571691 0.097437724 -0.14840277 0.02847523
-0.24781969 -0.22402595 0.08804702 -0.084865406 -0.034071375 0.26410228 0.12488225 0.24119304
-0.10310589 -0.037783008 -0.28637648 -0.06073622 -0.11840305 0.30146784 -0.27978155 0.15315683
-0.2113676 0.0028947396 0.06942267 0.033982698 -0.15827051 0.22483675 0.02171766 0.037066996
-0.10665645 -0.23324141 -0.07477952 0.15244548 0.31324172 -0.051157817 -0.037321843 0.10784822
0.15501538 -0.0388478 0.08172121 -0.0074804393 -0.022380443 -0.18573312 -0.19436577 0.039736766
-0.123546116 -0.23049112 -0.034223627 0.06972782 0.19909474 -0.019901548 -0.081937015 0.30025762
-0.0071070245 0.096391305 -0.034937065 -0.15782265 -0.1913099 0.08102904 0.0051549217 -0.07450329
0.228107 -0.28740138 0.01771539 0.024519976 0.0065640043 0.17792736 -0.06836329 -0.076537065
-0.20488133 -0.18636714 -0.17343384 0.22492787 0.16632544 -0.060639862 0.08398774 0.15435956
0.09241896 -0.18550761 -0.1445562 0.1713786 0.21922722 0.3053668 0.10422662 0.055754982
0.10695684 -0.08094532 0.07341864 -0.036823206 0.13175793 0.016562266 0.107746616 -0.1320935
0.12531504 -0.17899825 -0.055573337 -0.09296184 0.16516456 0.080117024 -0.026720112 -0.09109074
-0.2542791 0.017772643 -0.030030878 -0.1482825 -0.1755361 -0.18066472 0.12135637 0.07741093
0.26926112 -0.18234828 -0.13212363 0.011735279 -0.014741018 0.2421083 -0.0097078 0.044729594
-0.14219765 0.10284969 -0.06643579 0.14729546 0.10855183 -0.15039225 -0.1725839 -0.095667444
0.16531345 -0.20727907 0.009534884 -0.03600154 0.12730302 -0.05452551 -0.06287258 0.24769954
0.06110057 -0.028290555 -0.12390416 0.18955886 -0.1733971 0.24270096 0.1777973 0.010322823
0.08244476 -0.0597373 0.075803414 -0.05728536 0.065794416 0.14044642 0.20219412 -0.054654166
0.19470814 -0.10108821 0.29565284 0.10973585 -0.048867244 -0.03192575 -0.10220871 -0.20592473
-0.10848834 -0.050589573 0.18768556 0.1103275 0.06466737 -0.21514815 0.14744312 0.20012034
-0.13724065 0.075114936 -0.18041359 -0.10112066 -0.093677595 -0.20383838 0.0134122465 0.02628503

lstm.bias_ih_l1 f4 [64]
00000000: 1c99 3abe 361b 853e a1cb 3b3e 974c 38be
00000010: 5b6f 623e d6e3 3b3d b4cb ab3d 3490 813e
00000020: 514d 7b3e b3e8 f33d ff69 5bbd 65ca 7d3e
00000030: c169 843e e0b7 f63c bf21 1ebe 30e4 8d3e
00000040: cf12 85bd 8096 c6bd ada1 42be 3990 1c3e
00000050: 25e1 203e e242 74bd 3be9 41be 1646 663e
00000060: 9559 693d b2a5 8d3e aa83 233d f6c6 833e
00000070: adcf 46bc d2e8 90bd 4e02 2b3e 6ac9 a73d
00000080: bb8f 703e 4157 7bbc b834 5dbe 4ca4 27be
00000090: 9155 a8bd 9a71 e83b 432d 3fbe 88e0 593e
000000a0: 01c4 dcbd 165b 173d ef59 493e 21bb e03c
000000b0: c054 1f3d 6a28 993d 0728 b9bd 41af 96be
000000c0: 50c7 ef3d eb1d 03be d622 28be 4c06 fdbd
000000d0: f16e 8a3e bd2b e2bd 2425 853e 0237 5e3e
000000e0: c5a9 c23d 8cbf 9dbd 5043 20be edac 06be
000000f0: 2cba 593e e0ea c5bd ce5a 633c 5658 a93d
-0.18222469 0.25997323 0.18339397 -0.17997967 0.22112791 0.04587158 0.08388463 0.2530533
0.24541213 0.11909618 -0.053567883 0.24784239 0.25861934 0.030116975 -0.1544256 0.27713156
-0.06497728 -0.09696674 -0.19006987 0.15289392 0.15710886 -0.059634097 -0.18936627 0.22487673
0.056970198 0.27665478 0.039920487 0.25737733 -0.012134475 -0.07075657 0.16700098 0.081927136
0.23492329 -0.015340627 -0.21602142 -0.16371268 -0.082194455 0.0070936205 -0.1866961 0.21277058
-0.10779572 0.0369521 0.19663213 0.02743298 0.038899183 0.074784115 -0.09040838 -0.29430583
0.11707938 -0.12804382 -0.16419539 -0.12354717 0.27037767 -0.11043499 0.260049 0.21700671
0.09505037 -0.0770255 -0.15650678 -0.13151903 0.21262425 -0.096639395 0.01387663 0.08268802

lstm.bias_hh_l1 f4 [64]
00000000: 3689 353c f691 e43d 8193 17be cf62 843e
00000010: e112 e7bd e26b b9bd 21df 14be bb90 573e
00000020: 37df 92bd 61c3 a9bc bfdd 493e 08cf 0a3d
00000030: 659f 833e 66e4 123e 4620 c13c 98cf ffbd
00000040: f301 48be 2a02 f93d 8f62 853d 6228 8f3e
00000050: 5aca 2cbe 051b c93d d07c 153e 1a44 403e
00000060: 3210 273e fc78 173d 7df2 32be 4165 92bc
00000070: 56b6 983e 8cac 11be 698a 15be 9ef4 7c3e
00000080: e34e bebb 4b3b f1bd 0b18 7a3b fa69 f23d
00000090: 37f7 7fbb 64af 7b3e 6280 59bd 25f1 d5bd
000000a0: a88a b4bd d0a1 c5bb 046d a13b 178a 143e
000000b0: ef1b 123e f5fd 2d3e 52ca 703e 9bc4 2a3e
000000c0: ceca 46be 4693 7d39 91c7 d83c 1e2a 743e
000000d0: 880c 873d 5dbf 1b3e 8181 2c3d 2f17 47be
000000e0: 45e7 923d b2df 833d 5953 acbd 3964 9c3e
000000f0: 70e0 18be 68f6 12be 374f 08be c750 3dbe
0.011080077 0.11160652 -0.14802362 0.25856635 -0.11282898 -0.0905378 -0.14538242 0.21051304
-0.07171481 -0.020723047 0.19713496 0.033888847 0.25707546 0.1434494 0.02357496 -0.12490767
-0.19531994 0.12158616 0.06512939 0.27960497 -0.16874066 0.09819607 0.14598393 0.18775979
0.16314772 0.036980614 -0.17475314 -0.017870547 0.2982661 -0.14225978 -0.1460358 0.24702689
-0.005807744 -0.11778887 0.0038161303 0.1183662 -0.0039057264 0.24578625 -0.05310095 -0.10446385
-0.08815509 -0.0060312524 0.0049263258 0.14505802 0.14268468 0.16991408 0.23514679 0.16676562
-0.19413301 0.00024182824 0.026462348 0.23844191 0.06594187 0.15209718 0.042115692 -0.19442438
0.071730174 0.06439151 -0.08414335 0.30545214 -0.14929366 -0.14351809 -0.13311468 -0.18487845

fc1.weight f4 [16, 80]
00000000: 7a05 51bd 5d01 dcbd 1907 df3d e7a5 453b
00000010: 04c7 dc3d b2cc f23d eca4 d8bd 4865 cbbc
00000020: 744e 773d df70 a03c 89b4 3b3d 8119 c73d
00000030: 16e7 cabc f97e b23b dfd1 6bbd 3d56 c33d
00000040: 141e fabd 857d 933d 7a65 89bd 3ee7 06be
00000050: 708f 083e 1487 41bd 2509 93bd b189 053c
00000060: 89d5 fcbd 8fa3 61bd 292d 973b 315a e83b
00000070: 11bd 82bd 2aae 66bd 267d 88bc 43bc 323d
00000080: e867 14be 526f d2bd a82a fd3d babc 17be
00000090: 9590 fb3c 0b10 3dbd 97f8 c63d 9583 e73d
000000a0: ffae 083d e257 c8bd 7c70 a3bd 94f0 363c
000000b0: 7255 fc3b 3688 143d 150d 06bd c7a1 34bd
000000c0: cdb7 593d 8297 9a3d 3a4b 073e 32fb 13be
000000d0: e051 a03d d98b 1c3e cbd7 0ebe 68f8 3abd
000000e0: d9de 1bbe c246 e9bd 316a 423d e057 eb3d
000000f0: 4922 debd 3da4 133e b02d c53d 4779 0f3e
00000100: 1379 03be eb7d c23d de59 e33d 7fda ef3c
00000110: 7cc2 3fbd 9300 de3c 4ddb d9bd 7fb9 663c
00000120: 2238 c2bc 2cf9 7fbd fbfe c73d 38df c7bc
00000130: 4fe4 d9bd 6f94 cf3d ddb9 a43a 5fba a03d
00000140: f65d 9cbd fe08 c93d 3c92 be3a 8f71 213d
00000150: c9a3 fc3b 5437 173c 72a0 dc3d bd7d 47bd
00000160: fa3f cb3d e61c 37bd dea8 a9bb 3566 94bd
00000170: 9d41 dc3c 7e49 e4bd bc4c f13c f447 5fbd
00000180: 8811 c63d b880 e23d 367f 8d3d b758 d3bd
00000190: f80e 473d 2750 afbd f93d 0d3c 9394 8ebd
000001a0: 8d05 943d 50a6 38bc 48a5 0c3d 8e84 093d
000001b0: ea69 923d 67fa 8c3d 0b8c b9bb d78d 9fbd
000001c0: 3a2b 213d cfa5 24bd 1b00 5fbc 64e7 0f3c
000001d0: 6b1d c93d 1c05 a83d 155e 68bc d478 61bd
000001e0: f703 d53d de88 7e3d 0f89 c9bd 996b aabb
000001f0: d180 a5bd cd2f f8bc a068 c8bd b362 c2bd
00000200: d245 a3bd faf3 b4bc 1d6a 1c3d 00fa c9bd
00000210: 3b8e 34bd f32c a83c 9824 023d 2766 6ebb
00000220: fd58 aebd b5de 9bbb 08d8 0c3d f96f cfbd
00000230: ea4f 8fbd cfff 963c 5814 c0ba 461b a73d
00000240: 74fe 033d 8fbd 6e3d 9fe2 b0bd 1548 c1bc
00000250: 433c 8dbc 35fb ebbc cea6 8bbc 23e9 563d
00000260: 3da9 87bd cf62 0ebd bd0d 35bd 48f1 783c
00000270: fc79 9d3c c2fd 87bc 7824 663d 29c1 b5bd
00000280: d575 a53d b452 f53c dd50 a03d 4796 dabd
00000290: 3ac5 a63d 7a0a 7f3d 7ac3 923d 92df 713d
000002a0: bcb8 56bd fda2 e1bc 7caf 4c3b 0423 dd3c
000002b0: 91ef dabd 3ad7 b1bc 30a1 d8bd 3d5c 9cbd
000002c0: bbb4 2bbd f8bb 0ebd 7d6c cd3c 98fe a13d
000002d0: 98c1 15bd 1875 9cbc 59ab 1e3d 51ca e23c
000002e0: f9e3 e03d e69a a03c 8fb2 333c 84e2 afbd
000002f0: 544f 243d 29c6 123d 606c 203d c55d 80bb
00000300: cb1d 6bbc 96ac b73c af4c e5bb 6220 b7bc
00000310: bd72 cebd 8c4b 6a3d a3a1 81bd 579b 073d
00000320: 4e28 3f3d 56df 573d 486c 48bc 8aa8 44bb
00000330: 1a3e 9a3d e53f 82bd 03a9 a0bd 5481 943d
00000340: 5250 db3d 1615 ad3d 9983 8d3d 2c28 73bd
00000350: 48f4 893d f57a 6cbd a009 4d3d 8cb7 cf3d
00000360: 50d1 08bd 34f4 a8bd 1795 a2bd dfe1 18bd
00000370: cba5 073c d889 d13d f922 a73c 8e31 6abd
00000380: d74f 35bc 3882 01bd 6156 e23c 5187 383d
00000390: d055 85bd 2f50 143d f9d4 5d3d f366 e1bb
000003a0: 78ce 9dbd 13fc 913d 0c05 dabd 28c7 603d
000003b0: f57e 903c 90da fbbc 9e59 2ebd d05e ca3c
000003c0: 8eef 66bd 336b f3bc 1c5b 963d ece2 4fbd
000003d0: 2263 89bd 2164 dd3d af51 5b3d 6ffc f63d
000003e0: 9182 77bd 1f26 23be 115f 70bc e74f d43d
000003f0: 4044 033d cb8f df3d 5857 663d 3271 d1bd
-0.051030613 -0.107424475 0.10890026 0.00301587 0.10780147 0.11855449 -0.10578331 -0.024828568
0.060377553 0.019585071 0.04582647 0.09721661 -0.024768393 0.005447265 -0.057573196 0.09537933
-0.12212768 0.07201675 -0.06708808 -0.1317415 0.13335967 -0.04724796 -0.071794786 0.008150504
-0.12345416 -0.055087622 0.004613538 0.00709083 -0.06383718 -0.05631844 -0.016661238 0.04363657
-0.14492762 -0.10275139 0.12361652 -0.14818087 0.03070859 -0.046157878 0.097153835 0.11304394
0.033370014 -0.09782387 -0.07980439 0.011165757 0.0077006156 0.036262713 -0.03272732 -0.044099595
0.0531538 0.07548429 0.1321229 -0.14451292 0.078281164 0.15287723 -0.13949506 -0.045647055
-0.15221728 -0.11390449 0.047464553 0.1149137 -0.10846383 0.1441812 0.09627855 0.14011107
-0.12839155 0.09496673 0.11101125 0.029278992 -0.046816334 0.027099883 -0.106375314 0.014082312
-0.023708407 -0.06249349 0.097654305 -0.024398431 -0.106392495 0.10135733 0.0012567599 0.078480475
-0.07635109 0.09816168 0.0014539431 0.03941494 0.0077099544 0.0092295 0.1077279 -0.048703898
0.09924312 -0.044705294 -0.0051776012 -0.07246057 0.026886756 -0.1114683 0.029455535 -0.05451198
0.096713126 0.110597074 0.06909029 -0.103196554 0.04859826 -0.0856021 0.008620732 -0.06961932
0.07227621 -0.011270121 0.034337312 0.03357368 0.07149108 0.06883698 -0.0056624464 -0.07790726
0.039347865 -0.04019719 -0.013610865 0.008783195 0.09820064 0.082040995 -0.014182587 -0.05504687
0.10401147 0.062142245 -0.09840595 -0.005200815 -0.080812104 -0.03029623 -0.09785581 -0.09491482
-0.079723015 -0.022088993 0.038187135 -0.09862137 -0.044080954 0.020529246 0.03177318 -0.0036376806
-0.08513067 -0.0047567734 0.03438571 -0.10128779 -0.06997664 0.018432526 -0.00146545 0.08159499
0.032225087 0.058286246 -0.086369745 -0.023593942 -0.01724065 -0.028806308 -0.017047312 0.05246843
-0.066240765 -0.0347622 -0.044202555 0.015194245 0.019223206 -0.016600493 0.056187123 -0.08874733
0.08079115 0.029946662 0.078279234 -0.106731944 0.08143087 0.06226585 0.071661904 0.059051104
-0.05242227 -0.02754354 0.0031232527 0.026994236 -0.10690225 -0.021709073 -0.10577619 -0.076347806
-0.041920405 -0.03484723 0.025076145 0.07909888 -0.03656158 -0.019098803 0.03873763 0.027684363
0.10980982 0.019605111 0.010967865 -0.08588126 0.040114716 0.03583351 0.039165854 -0.003917428
-0.014350365 0.022421163 -0.006997667 -0.022354309 -0.10080478 0.057200953 -0.06329658 0.033107128
0.046669297 0.052703224 -0.0122328475 -0.0030007684 0.07531376 -0.06359843 -0.078447364 0.0725123
0.10708679 0.084512874 0.06909866 -0.059364483 0.06736046 -0.05773445 0.050058007 0.10142431
-0.03340274 -0.08249703 -0.07938593 -0.037324782 0.008279274 0.1023137 0.020402418 -0.057176165
-0.011066399 -0.031618327 0.02762908 0.045050923 -0.06510508 0.03620928 0.054158185 -0.0068787276
-0.077053964 0.071281575 -0.10645494 0.05487743 0.017638663 -0.030743867 -0.042565934 0.024703413
-0.0563808 -0.029714203 0.073415965 -0.05075352 -0.06708361 0.10810114 0.053544696 0.12059867
-0.060427252 -0.15932511 -0.014671103 0.10366803 0.03204751 0.10916098 0.05623564 -0.102266684

fc1.bias f4 [16]
00000000: 3a08 c53b 8b60 23bd 91a7 78bc 06d0 e6bc
00000010: c1bd 013e 74d7 babd 9a5d 99bd 7523 0ebd
00000020: 4755 033e ee01 743b 4c64 1c3d 23b0 263d
00000030: 941e e83d 1a82 003c 1ffc 283c 22f8 2cbd
0.0060129436 -0.039886992 -0.01517667 -0.028175365 0.12670042 -0.09123126 -0.07488556 -0.034701783
0.128255 0.0037232595 0.038181588 0.04069532 0.11333957 0.007843519 0.010314017 -0.042228825
